DAinGD Lab#5/MLA_Lab4/results/EconomicX/Economic/checkpoint.pt (torch, 453647 bytes, 39 tensors)

network_body._body_endoder.seq_layers.0.weight f4 [128, 8]
00000000: facd c2be 36fb 253e f7c6 5e3e 9095 973e
00000010: 0e40 1abf f653 93be 7bf6 ddbd b873 d5be
00000020: 55b0 c43d 94ba 463e 282b 5d3f b564 02be
00000030: ad5b fabe 3e67 cebe 3109 f3be 48e7 0b3e
00000040: 2419 173e 70b9 dcbe 17de 82be bb54 83bd
00000050: 4539 7cbe 10a6 81bd ea80 a23e d3d7 85bd
00000060: db52 f43d ea80 23be 075c 0f3f 9732 7dbf
00000070: 2d20 dabe 45ca c5bd d3b3 373f 04d9 f43e
00000080: 9e1b fc3e dcdd 7fbe 8965 4fbe 84bb a3bc
00000090: c530 6c3f 859b 5d3e c249 893e 4004 323f
000000a0: 5ba1 153e fbb3 5abe 4d91 eb3d 4358 143e
000000b0: 1594 a5bd 8122 903e 4169 debd 07af 973d
000000c0: 3146 ed3d 2c9f 5bbf dce7 8e3e beeb 87bf
000000d0: 9f0c d4be d3a0 ecbd 91f1 df3e 087d 0abe
000000e0: 2cc7 5fbe fa42 16bf 7f88 883e 2795 703e
000000f0: 2d90 403f f0f2 9abc 1629 6c3d 54fc 2cbe
00000100: f1a7 553c 0f9d 683d db7d 783e 6b15 cdbe
00000110: ab6f 36bd c414 8ebe 62fe 9e3e 05ec 87bc
00000120: 791f 6bbf d256 e83b f11f 893e 52f9 97be
00000130: b08e 0cbd 3ec5 983e cd80 343f 0f41 adbe
00000140: 3e7f 1cbe 4166 c83e 760f 9f3e 3f0f a0bd
00000150: fe74 17bf 4bf5 f63c f772 ee3e 42c9 f03e
00000160: 489b 2b3e 3f4e 0cbe 0082 053e c87a 33be
00000170: afa5 b33e 5fe3 443f 0d3c a33d ff9b c33e
00000180: d91f 713e 515c e9bc b8b8 f4ba f55d 123f
00000190: 7761 03bf 9103 3cbe facc dd3e 8513 893e
000001a0: c5de bbbe f2d4 ee3e ab8a e63c 249b 2f3e
000001b0: f5f5 893e 819d 4f3e cfbb 28be 5668 dd3c
000001c0: 6a94 5abf f73c 573e 6b69 a7bd ef2b 9a3d
000001d0: ba71 10be 7cba 84bd 22e9 283b 479a ac3d
000001e0: b03e 5f3e 1e8b d1be eb53 87be 8cdf 17bf
000001f0: b33b 8dbd b138 72be 0edd 00bf d4f0 1ebf
00000200: bf87 b7be 8c3d 163e e013 8abd 1f56 e73d
00000210: 7f00 07bd ac53 ad3d 6c57 a2be d3f0 d73e
00000220: 98c7 033e 5097 f43d f2a6 833b e6ca 153f
00000230: d397 fdbe 82de cabd c818 4fbd aebb 5c3e
00000240: 7044 e73e 3663 df3e 23ea 023e 22b5 1c3f
00000250: e704 1abe 3933 7f3e 8f61 debd d4b4 043e
00000260: 6ee8 1f3f 724d 5bbe 19af 5bbe 8e00 793e
00000270: 819c 0d3e c54f adbd d107 823e d331 ac3d
00000280: 4023 5c3f 8c84 303e 6b6b c3be d9ce 5f3e
00000290: e917 dbbd eff1 423e 7651 0e3d 58fb e53d
000002a0: ed09 383e b6c2 883e a8c2 4fbe 4720 4ebe
000002b0: b7dc c9bd cfc9 e8be 3907 ed3d 5695 c43e
000002c0: afcd 3bbe da38 fdbe 458e 9cbe e90d b0bc
000002d0: a44b 44bc f5ce 9d3e 9751 30be 25a6 cf3e
000002e0: df61 6c3d c681 d03e 7ce3 d03d cf3e 2a3d
000002f0: f535 223e 77bb 39bf a758 cdbe 0cff c0bd
00000300: bae2 01bf 7e84 fcbe b932 753e bbd6 8d3e
00000310: a070 0fbe 0f57 f73e 50a6 5d3e a976 01bf
00000320: 7c32 bbbd c8d6 313e 22e9 7ebe 0444 e73d
00000330: 3804 9cbd 4ba7 25bd d69f 553d 8f89 c8bd
00000340: 1cb2 8f3e c30c 14be 0989 8e3e 984c 4dbe
00000350: 668f b9bd 6136 a9bc e37f 38bd b299 593f
00000360: 78cb 273f 1953 82be fdd8 96be a628 143e
00000370: cd25 e83c 87df 9a3e b71d 6c3d 3722 023d
00000380: f077 0dbf c2ea cfbe f1a6 223d 0063 7f3e
00000390: ea47 a3be 3e1b d9be 769c 2d3b fee7 953e
000003a0: c844 16bf 79f2 d9bd 05e2 81be fbeb 54bd
000003b0: 8633 223d 8400 51be c22a 66bd f0b9 1dbe
000003c0: 77c9 e93d f9d8 8a3e b3cf 3c3e 1c44 cebe
000003d0: ca03 74bf f0ea 4ebe 6b77 3d3e f206 94bd
000003e0: 8b4b 6cbe f6ee 1dbe ed24 123c e8ab 9c3d
000003f0: 136a a1bd 3079 a83e 1f62 da3e c62e f83e
-0.38047773 0.1620911 0.21755587 0.29606295 -0.6025399 -0.28774995 -0.10838028 -0.4168985
0.09603945 0.19407111 0.86393976 -0.12733729 -0.48898068 -0.40313143 -0.4746795 0.13662446
0.14755684 -0.43110228 -0.25560066 -0.064126454 -0.24631222 -0.06330502 0.3173898 -0.06535306
0.11929866 -0.15967146 0.559998 -0.9890532 -0.42602673 -0.096577205 0.71758765 0.4782182
0.4923982 -0.24986976 -0.20253576 -0.019986875 0.92261916 0.21641357 0.26814085 0.69537735
0.14612333 -0.2135772 0.11502323 0.14486794 -0.08084885 0.28151324 -0.10859919 0.07406431
0.115856536 -0.8578975 0.2791127 -1.0618818 -0.4141588 -0.11554112 0.43738988 -0.13524258
-0.21853322 -0.5869595 0.26666638 0.23494397 0.75219995 -0.01891467 0.05765637 -0.1689313
0.013040529 0.056790408 0.2426676 -0.40055403 -0.04454009 -0.27750218 0.31053454 -0.016592035
-0.918449 0.007090428 0.26782182 -0.29682404 -0.034315765 0.29837984 0.70509034 -0.33838698
-0.15282914 0.39140514 0.31066483 -0.07815408 -0.5916289 0.030146262 0.46572086 0.47028548
0.16758454 -0.13701724 0.13037872 -0.17527306 0.35087344 0.7690944 0.07970438 0.38204953
0.23547305 -0.028486403 -0.0018670773 0.5717462 -0.51320595 -0.18360735 0.43320447 0.26772705
-0.36693397 0.4664684 0.028142294 0.17149025 0.26945463 0.20274927 -0.16477893 0.02702729
-0.8538271 0.2101935 -0.08174404 0.07527911 -0.14105883 -0.064808816 0.0025773724 0.084278636
0.21801257 -0.4092645 -0.26431212 -0.5932548 -0.06896152 -0.23654439 -0.503373 -0.62086225
-0.35845754 0.14671916 -0.06742072 0.11295723 -0.032959457 0.08463225 -0.31707323 0.42175922
0.12869108 0.11942923 0.004017704 0.58512723 -0.49529895 -0.09905721 -0.050560743 0.21555969
0.451694 0.4363038 0.12784629 0.61213887 -0.15040933 0.24921884 -0.108584516 0.12959605
0.62464035 -0.21416262 -0.21453513 0.24316618 0.13829233 -0.084624805 0.25396588 0.08407941
0.8599129 0.17238063 -0.3816789 0.2185625 -0.1069792 0.19037603 0.034745656 0.11229581
0.17972536 0.26711053 -0.20289099 -0.201295 -0.09856551 -0.45466468 0.11573643 0.38395184
-0.18340181 -0.49457437 -0.30577293 -0.021491008 -0.011980925 0.30821958 -0.17218624 0.40556446
0.057710525 0.4072401 0.10199639 0.041563805 0.15840895 -0.72551674 -0.401067 -0.09423646
-0.5073658 -0.49319834 0.2394513 0.2770289 -0.14007807 0.48308608 0.21645474 -0.50571686
-0.091404885 0.17367089 -0.2489362 0.1129227 -0.07617992 -0.040442746 0.052154385 -0.09791862
0.28065574 -0.14457993 0.27838925 -0.2004875 -0.09060554 -0.020655813 -0.045043837 0.85000145
0.65544844 -0.25454023 -0.29462424 0.14468631 0.028338337 0.30248663 0.057645526 0.03177091
-0.55261135 -0.40608793 0.03970999 0.24940109 -0.31890804 -0.42403597 0.0026490963 0.29278558
-0.586987 -0.10641951 -0.25367752 -0.05198286 0.039599918 -0.20410353 -0.05619312 -0.15402961
0.114153795 0.27118662 0.18438606 -0.40286338 -0.9531828 -0.20206809 0.18502586 -0.07227887
-0.23075692 -0.15423188 0.008919937 0.07649976 -0.0788156 0.3290496 0.42652985 0.48473185

network_body._body_endoder.seq_layers.0.bias f4 [128]
00000000: 3310 87bb 7a8c 553a a0c8 4f3b 7146 01bb
00000010: 68a5 a0bb f6bd f439 d808 b53b 5375 ffb8
00000020: 25b4 a539 f164 423b 6634 6d3b 8203 0dbb
00000030: 7c04 8a3a df51 17ba aa4d c1b9 a2bf 173b
00000040: d558 d1b9 592b 7dbb a1a9 49ba 9de8 60b9
00000050: e0a2 4e3b d89d 4739 24e3 673b 0ea3 fdb9
00000060: 87d2 88b7 6139 9ab9 61e6 9f3b 204d 4739
00000070: 36bf 1139 287a 3fba dc75 593b 6029 54b9
00000080: 9cb0 36bb 1211 6eb8 ce3f bfbb 92a7 1dba
00000090: 406b 40ba ad9d 0eba 6053 b9b9 684f e9ba
000000a0: ad2e a7ba f3a9 3a3b 4110 24b9 2251 9a38
000000b0: 6cf5 e639 6667 d93b 6072 adbb 8c39 763b
000000c0: 44e6 2839 ac1d 28b9 386b 8b3b da32 cebb
000000d0: e067 dabb d2f8 cfba 4b86 bdba 493a dfbb
000000e0: 42b0 38ba 5bc7 fbb9 6312 e2bb b204 7eba
000000f0: 96c9 28bb eff2 ca3a 536f 01ba 7862 7cbb
00000100: b2f1 abb9 5b25 083a 79e8 c63a 3548 d63b
00000110: 57e5 743b 8a48 07ba 0464 fa3a 53e1 77ba
00000120: e2e5 cd39 ef50 da3a ea5a 85b9 046c f2bb
00000130: 98b5 9dbb 3439 cf3b bd0f 363a 96a5 ad3b
00000140: 9ab3 9ab9 c773 9aba 725e 39ba 4d8a b4b9
00000150: 149c 09bb c96b 96bb 52f1 00ba 07f2 e3bb
00000160: c32a 2f3b 416f 0839 a043 eb3a f043 97ba
00000170: 0776 ca39 ce0f 5fba 0bca 07bb f255 1539
00000180: 5889 11ba 4aba 10b9 2115 623b 4efd dbb9
00000190: 8a1c cb3a 84ee 913a dfc0 033b 5904 fab9
000001a0: 2d4e f1ba ddcc 69ba d4ab e5ba 0d2e 4438
000001b0: ace8 ebb9 1ca0 58ba 287a a2bb b278 00ba
000001c0: 4ce2 10b9 0e49 84ba 49ba 333b 0b8f ae3b
000001d0: d5bd d5ba fae2 b83b be1c 1bba 7952 9f38
000001e0: a2d0 04b7 877e b8ba 5d94 7939 077d 4c3b
000001f0: 4978 f7bb 5141 2a3b 4bbd a2b9 f435 4d3a
-0.004121804 0.0008146238 0.0031705275 -0.0019725824 -0.0049025305 0.0004668084 0.005524736 -0.00012181201
0.0003160547 0.0029662217 0.0036194562 -0.0021516983 0.0010529901 -0.00057723926 -0.00036869693 0.0023154994
-0.0003992977 -0.0038630574 -0.0007692818 -0.0002144896 0.0031530187 0.0001903692 0.003538319 -0.00048377406
-1.6310498e-05 -0.0002941592 0.004879758 0.0001900685 0.00013899509 -0.00073042745 0.0033181822 -0.00020233309
-0.0027876263 -5.675952e-05 -0.0058364635 -0.00060140446 -0.00073402 -0.00054403656 -0.0003534807 -0.0017800154
-0.0012754999 0.0028482645 -0.00015646314 7.3584044e-05 0.00044051872 0.0066346405 -0.0052931756 0.0037570922
0.00016107509 -0.00016032782 0.004254725 -0.006292683 -0.006665215 -0.0015867001 -0.0014459578 -0.006812368
-0.00070453074 -0.00048022982 -0.0068991645 -0.0009690031 -0.002575492 0.0015483777 -0.0004937548 -0.003851084
-0.0003279574 0.00051935547 0.0015175483 0.0065393695 0.0037368143 -0.00051606505 0.0019103293 -0.0009455878
0.00039271923 0.00166562 -0.00025435473 -0.0073981304 -0.0048129074 0.006323958 0.0006945094 0.0052992804
-0.00029506983 -0.0011783772 -0.00070712634 -0.00034435318 -0.002099757 -0.0045904857 -0.0004918772 -0.006956342
0.0026728369 0.00013011416 0.0017949231 -0.0011540633 0.0003861638 -0.000850913 -0.0020719792 0.00014241764
-0.0005551777 -0.00013802308 0.0034497457 -0.00041959662 0.0015496176 0.0011133705 0.0020103974 -0.00047686955
-0.0018410139 -0.00089187716 -0.0017522522 4.677293e-05 -0.00044996047 -0.0008263604 -0.00495841 -0.00049007975
-0.00013817212 -0.0010092573 0.0027424267 0.0053271106 -0.0016307185 0.005642292 -0.00059170637 7.5970725e-05
-7.916389e-06 -0.0014075794 0.0002380176 0.0031202452 -0.007552181 0.0025978873 -0.00031040082 0.0007828169

network_body._body_endoder.seq_layers.2.weight f4 [128, 128]
00000000: c58f f3bd ab54 a33d cbbe 033e 1e6c 76bd
00000010: a392 ce3d 8688 01be 690e 8b3c 78ea 61bb
00000020: f498 8d3d 720e c5bc 21b4 c7bd 2265 983e
00000030: 450a bebd 4dd1 913d c0d5 0c3e 2452 ffbd
00000040: b71e 9b3d f15a 763e 5c38 74bd 1255 aebd
00000050: d785 a93d 599a 9d3d 3a87 b9bd 31c6 283d
00000060: 1e4f 74bd 3178 003b a69d bebd 958d 1dbd
00000070: 9141 35be c1bb 633d 60b0 8e3d 5864 083e
00000080: 4f64 14bd 603f beba bfab 0dbe 4bd1 5ebc
00000090: 0497 e03d e07a b8bc 792e 2fbd f267 a7bd
000000a0: 8e60 9c3b 951b db3c b32a 0c3d 1e57 a03d
000000b0: 84de 073e 7d30 1fbe 79bf e5bb 042c 1d3d
000000c0: 5c5b 503c b953 7dbd 9e23 3d3e b6fc fc3c
000000d0: f678 053d 6e2e bc3d 8cf0 3f3d c457 9b3d
000000e0: 3bf2 5dbe fbfe a73c 5eb2 a23d 6e44 d73d
000000f0: a181 30bd aacd 09bd 61ec bd3c 95c5 933d
00000100: 2f6c bc3d 2f10 a8bc 5faf c4bd 4349 3b3d
00000110: d90b a13d 4a20 96bd eee9 0c3e 6f78 ad3c
00000120: 2bd8 8fbd 38bc d2bd fa57 de3b 5786 5e3d
00000130: a0e0 ff3d 7cae 6cbd 1eb3 5d3d 5a65 29be
00000140: 29b0 823d 5803 d4ba 03f4 563d a46b 26be
00000150: 3adc 463c 1842 a7bd aeaf 7c3d a105 b93d
00000160: 87cd 18be 6c49 4abd 4831 31bd 36ab 113d
00000170: 826a de3c 9309 73bd 02a7 563c 6098 893c
00000180: d1f0 afbc 0e58 863c 27a4 10bc b587 ec3d
00000190: 27ba f7bd 59ff f5bc f02c 90bd f231 1b3e
000001a0: ccf5 60b8 8171 873d cfc4 c6bd a20b 8cbb
000001b0: 491f c63d fc19 b4bd 7b21 cc3d b0fa 4a3d
000001c0: b6ab babd 4021 fd39 a9e5 26bd 9b07 18bd
000001d0: f382 89bd 7426 a73d c719 7ebd bbf4 313c
000001e0: 5805 2fbd 45dc 0fbd 8d84 613d 7f39 2cbd
000001f0: dead 3d3d f3c9 76bd b1ab 74bd a1f0 93bd
00000200: a21e febd 41df 8b3c 61e7 063e f701 a7bb
00000210: 5d83 b6bb 40d5 d83c 0b22 473d 7b8e af3c
00000220: efa6 f43d b266 1b3c e4d8 293d c3bf 36bd
00000230: cf1a a33d 8d52 21be 2593 163d a30e 1abd
00000240: f0eb 353d 1ab8 abbd 1fc7 633c 77dc 343e
00000250: dcef 36be 39b3 9a3d c8fc 023e 3307 d93a
00000260: ce8f 03ba 408d b8bd 6168 e63a 287c b83d
00000270: 8e77 a5bd 6847 c0bd 6010 a03d f2cc 0e3d
00000280: dcb5 e8bd 0393 c33d 5268 343d 38ed 2abe
00000290: 5da9 67bd 614a 6dbd 5245 34bb 8126 3f3c
000002a0: d452 70bd 0988 3e3d d0e4 363d 4bcd 303d
000002b0: b0da eabc bdd2 123d 0fa2 9abc 9b60 f53d
000002c0: 26bc 933d 9f40 4f3d ba72 39bd 3d98 e73b
000002d0: 42ac 803e 28b7 05be 5eba 1d3e df97 18be
000002e0: 63a9 ecbc 3578 8c3c 6afd 753d e99d 2c3d
000002f0: 5d39 afbc b5b1 66bc 6514 81bc 599c ecbd
00000300: be43 ddbc 8b39 203e e67f 4ebc 01a9 0e3d
00000310: af47 94ba 65e7 0bbd 2e06 72bd 11ee 2c3d
00000320: 47f5 623d 6844 0a3c 6660 c0bd 83ef 7dbd
00000330: f55f 013d 7093 293d 039a 0abc 1bc9 da3d
00000340: 508f c73d d80c 753c fabb 8abb 2cd1 13be
00000350: a361 3ebe 34c9 17bd d3c4 4dbd d13c 593d
00000360: fb02 cb3c 9799 95bd 1d34 b3bd 04f0 8c3d
00000370: 4532 1ebc 67c4 b3bc eaea ebbc cdc9 2abe
00000380: 72fb 0c3e 7680 9fbd 9347 94bd 3a78 003e
00000390: c133 1c3b a78a a9bb 6146 99bd 6d27 10be
000003a0: b0eb bf3d 5491 f63d 4e2d 473d f364 a63c
000003b0: 5501 043d 1660 24bd 1333 11be 4543 333e
000003c0: fe38 c9bc 8ee7 24bd ed7c 21be 33cd cfbd
000003d0: f15a 9ebb a9a1 80bd 5f25 70bd bd17 0d3d
000003e0: 1b17 653c 27c9 113d 158e 073d cc2c aa3b
000003f0: a2fd 1d3e 95b2 ce3b f3da 263b 3964 33bc
-0.11892656 0.079751335 0.1286575 -0.060161702 0.100865625 -0.12649736 0.016974645 -0.003447203
0.06913939 -0.02405474 -0.09751154 0.29764658 -0.092793025 0.07119999 0.13753414 -0.12466839
0.07574218 0.24058129 -0.05962406 -0.085123196 0.08277481 0.07695455 -0.090589955 0.041204635
-0.059645765 0.001960289 -0.09307413 -0.0384651 -0.17700793 0.055598978 0.069672346 0.13319528
-0.036228474 -0.0014514737 -0.13835047 -0.013599704 0.10966304 -0.022519529 -0.04276893 -0.08174123
0.0047722524 0.02674655 0.03422041 0.07829116 0.13268477 -0.1554584 -0.0070113507 0.038372055
0.012717094 -0.061847422 0.18470618 0.03088222 0.03258606 0.09188543 0.046860263 0.07585099
-0.21674435 0.020507326 0.07944177 0.10511099 -0.043092374 -0.033643402 0.023184003 0.0721542
0.09200322 -0.02051553 -0.09603762 0.045724165 0.07863588 -0.073303774 0.13761112 0.021175591
-0.07023653 -0.10289806 0.00678539 0.054327335 0.12494016 -0.05778359 0.054125898 -0.16542569
0.06381256 -0.0016175313 0.0524788 -0.16251999 0.012137467 -0.08166903 0.06169098 0.09034277
-0.14922152 -0.049386427 -0.04325989 0.03556367 0.027150396 -0.059335303 0.013101341 0.01679629
-0.021477135 0.01639941 -0.0088281995 0.115493216 -0.120960526 -0.030028986 -0.07039821 0.15155771
-5.3634678e-05 0.06613446 -0.09705507 -0.0042738477 0.09673936 -0.087940186 0.099673234 0.04955548
-0.091147825 0.00048280694 -0.040746365 -0.03711663 -0.0671443 0.08161631 -0.062036302 0.010861571
-0.042729706 -0.035122175 0.05505805 -0.04204702 0.04630839 -0.060251188 -0.05973405 -0.07223631
-0.124081865 0.01707423 0.13174202 -0.00509667 -0.005569859 0.026468873 0.04861645 0.021430245
0.119459026 0.009484934 0.04146661 -0.044616472 0.07964098 -0.15754147 0.03676142 -0.037611615
0.04441446 -0.08384724 0.013902455 0.17662226 -0.17864937 0.07553715 0.12791741 0.0016557932
-0.0005018682 -0.09011316 0.0017578715 0.09008056 -0.08079444 -0.0938862 0.07815623 0.03486342
-0.11362812 0.09549525 0.0440448 -0.16692054 -0.056558 -0.05793226 -0.0027507138 0.011666895
-0.05867274 0.046516452 0.044651806 0.043164533 -0.028668731 0.035845507 -0.018876104 0.11981317
0.07213621 0.050598737 -0.045275427 0.0070677088 0.25131422 -0.1305815 0.15403125 -0.14901684
-0.028889364 0.017147163 0.060056128 0.042142782 -0.021389658 -0.014080455 -0.015756795 -0.115532584
-0.027009841 0.15646951 -0.012603736 0.034829143 -0.0011312867 -0.034156222 -0.059087925 0.042219225
0.055409696 0.008439161 -0.093933865 -0.061995994 0.031585652 0.041400373 -0.008459571 0.10682889
0.097441316 0.0149566755 -0.0042338343 -0.14435261 -0.18591933 -0.037057117 -0.050236534 0.053036515
0.024781695 -0.073046856 -0.08750174 0.06881717 -0.00965554 -0.021944238 -0.02879854 -0.16678543
0.13767794 -0.07788174 -0.07240214 0.12545863 0.0023834559 -0.0051739994 -0.07484127 -0.1407754
0.09371126 0.12039438 0.04862719 0.020311808 0.032227833 -0.040130697 -0.1417964 0.1750613
-0.024563309 -0.04025989 -0.15770312 -0.101465605 -0.0048326184 -0.06280834 -0.05862939 0.034446467
0.01398256 0.035592224 0.033094484 0.0051933285 0.15428784 0.0063079097 0.0025460094 -0.010949188

network_body._body_endoder.seq_layers.2.bias f4 [128]
00000000: 7394 d6bb 3e4d 723b 1d83 b537 e3e3 55bb
00000010: 48da 7a3b 880d f0b9 5e6f 90bb f673 86ba
00000020: 4929 92bb d275 3cba ebb8 02ba 9a3e 98bb
00000030: 3900 c539 f184 383a 2aa7 313a bb85 b6ba
00000040: 8723 cf39 fee2 93ba dd0d 9cbb 7671 1c3a
00000050: 9c61 8c3b cd98 8ebb c6c3 7f38 4d84 8fba
00000060: ed0a 103a b051 3739 42ee b2b9 6d6e 98ba
00000070: ebff 36bb 9f19 02ba ec3c 233b 658f d2b9
00000080: 1a6c 4ebb 6078 c2ba 5811 d2bb 4da5 34b7
00000090: 1b65 57ba 319a 86ba 4991 603a 5e0f 75ba
000000a0: af8b 0cba cec3 c9ba 434a 75bb 7669 bf3b
000000b0: d222 beb9 e55f 3d39 0882 b53b 6def e2bb
000000c0: 2058 d4ba 7144 743b c5c5 debb 4e96 68ba
000000d0: a401 f2b9 7b94 98bb b3c2 5dbb c777 b6b9
000000e0: 1421 0d39 d78d b5ba 3007 893b 8ac3 65ba
000000f0: 6cdd 7fba 3c3a fab9 530f fb3b 261c 9e3a
00000100: 564c e0b9 7e17 623b ebfa 8e3a 1de6 14ba
00000110: bf25 573b 0a5f 12bb 4638 823b 4004 30b9
00000120: 8a1a 59bb 551d 37b9 bf5b 3bba 081f 60ba
00000130: 2a66 303a c9f4 01bb 6ef4 0aba 78e9 9fbb
00000140: 893d dcb9 0879 373b 3b59 42ba 86ac 693a
00000150: dcd7 073c 881e 9a3b ddee 50ba 18e1 363b
00000160: 2475 3eba 7dfb d93b 8406 36bb cb68 953a
00000170: ffb7 3639 22d3 8cba acee 583a 8367 b4b9
00000180: 4d9c fc39 fdd9 e4b9 89f5 5f3a eb42 57bb
00000190: 276a ba3b c938 923a 5f53 a6bb b1ef 1eba
000001a0: 5c31 2dba fffb f2bb d292 8d3b bed0 94b7
000001b0: bdca 903b a509 ddba 2f18 abb9 fe29 d039
000001c0: b3ce 97b6 e329 fd39 81cd 693a 1911 e0b9
000001d0: 7e79 ae39 b84a b23b 6a03 24bb 6ef6 003a
000001e0: 4358 653a 8162 60ba 6aeb fc39 d69a 55ba
000001f0: 5ce5 99bb 158b acba 09b8 e5b9 1a98 853b
-0.0065484582 0.003697231 2.1637936e-05 -0.0032637052 0.0038277078 -0.0004578645 -0.0044078073 -0.0010257948
-0.004460488 -0.00071891875 -0.00049866614 -0.0046461346 0.00037574934 0.0007038853 0.00067769235 -0.0013925353
0.00039508587 -0.0011282859 -0.004762395 0.0005967835 0.004284097 -0.0043517114 6.0979066e-05 -0.0010949463
0.0005494792 0.00017482671 -0.00034128322 -0.0011629589 -0.0027923535 -0.0004962924 0.0024908138 -0.00040161159
-0.003149754 -0.00148369 -0.006410759 -1.0767323e-05 -0.0008216665 -0.0010269341 0.0008566571 -0.0009348298
-0.00053613906 -0.0015393437 -0.0037428297 0.0058414293 -0.00036265567 0.00018060168 0.0055391826 -0.0069255144
-0.001620058 0.003727224 -0.0067984783 -0.0008872495 -0.0004615906 -0.004656372 -0.0033837974 -0.00034802986
0.0001345913 -0.0013851476 0.004181765 -0.00087647943 -0.00097604725 -0.00047727104 0.007661739 0.0012062832
-0.00042781484 0.0034498866 0.001090852 -0.00056800415 0.0032828895 -0.002233448 0.0039739935 -0.00016786251
-0.003312739 -0.00017463167 -0.0007147155 -0.0008549546 0.0006729091 -0.0019829741 -0.0005300705 -0.0048801266
-0.00042007517 0.0027995724 -0.0007413809 0.00089139526 0.008291211 0.0047033466 -0.0007970164 0.0027905162
-0.000726538 0.006652294 -0.002777488 0.0011399029 0.00017425416 -0.0010744075 0.0008275311 -0.00034409398
0.0004818164 -0.00043649963 0.00085433625 -0.0032846283 0.005688924 0.0011155839 -0.0050758566 -0.00060629385
-0.00066067814 -0.007415294 0.004320481 -1.7740178e-05 0.0044186995 -0.0016863836 -0.0003263368 0.00039704138
-4.5242136e-06 0.00048287128 0.0008918867 -0.00042737348 0.00033278385 0.005441036 -0.002502645 0.00049195334
0.0008748809 -0.00085596 0.00048240583 -0.00081483775 -0.004696531 -0.0013164008 -0.000438154 0.00407697

action_model._continuous_distribution.log_sigma f4 [1, 5]
00000000: 2b16 3c3b a522 f53b 10b5 133c 37fa b13b
00000010: d6b7 b83b
0.0028699737 0.0074809366 0.009015337 0.0054314393 0.0056371493

action_model._continuous_distribution.mu.weight f4 [5, 128]
00000000: 073a 77bb 23e1 aebb 7045 313c 1fb4 d33b
00000010: 10c3 b4bc eb15 39bc 70a6 3ebc 0fad 523b
00000020: a2a3 02b9 339e 223d 47b2 8bbc 0d9c d1ba
00000030: afb9 15bc f949 29bd df6a 8fbc 6c3e be3c
00000040: f72a babc 7b77 38bc 86bd da3b 8237 453c
00000050: 3667 d4ba cdf4 ddbb 623b aa3b 803f 703c
00000060: 91c5 023a 7754 85bb 7dbf a6bb 1bb9 f33a
00000070: 65b4 003b c10f 81bc 5be8 06bb ec31 a7bc
00000080: 2541 8cbb 94b5 283c 8150 a73c 46ed a33c
00000090: 4328 b53c da53 bfbb d7ed 053d a2cb 23bc
000000a0: 5663 d93c d3a4 e4bb c012 b83c d573 8b3c
000000b0: 242f 153c 085c f23b cb4f c8bb aabf cd3c
000000c0: dbd7 2db9 659e 82bc e45a 373c 4b84 c8bc
000000d0: dd5f d2bc 577e 92bb c42d 373d 04ae acbc
000000e0: 8fa9 b63b 5fb2 ea3b 7a87 973c ca53 4d3c
000000f0: b45d aa3b ddef 153c 4dfc e0ba 130a afbc
00000100: 758b e43a 1d43 08bc e151 6fbc 61e6 993c
00000110: eee8 463b f969 403c ada1 95bb e5d3 b0bb
00000120: 331c b03c 3544 933c a04d 00bb 7c86 e13c
00000130: f196 ad3c 73ac 2d3c 5680 873b 7306 b0bc
00000140: 7434 59bb b397 ba3c bab7 e7ba 9526 89bb
00000150: 5cb7 2b3b 9dc6 a23c 996f b93b 1158 b93c
00000160: 7b98 2c3c daa3 1dbc cc6f 9b3b 1f72 dd3c
00000170: ebb1 6bba ec52 86bc c787 2abd 9a91 d13c
00000180: 2ecf 68bc a7a1 92bb 1361 8a3c 16be 99bc
00000190: 2a68 0c3c d0e6 213c dfed d33c a56c 803c
000001a0: 5830 ccbb 1f14 003d 3fe8 8dbc a59f e03c
000001b0: 1440 02bd a374 643b b2f4 91bb a7e8 37bc
000001c0: 0f8e fb3c 3f82 d7bb 538c b23c 5b09 10bd
000001d0: b632 8a3c b28c 42bc e1a4 afbc a957 71bc
000001e0: 01f8 81bc c2af 23bc b8de 5cbc 02be 96bc
000001f0: e4f8 01bc 9144 33bc 1e99 e2bb 96fc d33b
00000200: dcee 3cbc 1f11 1a3c df3a d3bb f757 f63c
00000210: 8925 323c f0bf de3b 72bb 1abb f856 05bd
00000220: fe82 b53b 13e7 4f3d ec1e bcbc 5efb 5cbc
00000230: 244a b9bb 5bfd 5c3c 6a6e e33b 704c df3c
00000240: 0537 90bc e2f3 8bbc 5d4c 793b dd91 b5bc
00000250: ace1 983b 6369 823c 4e7c efba 510c 483c
00000260: e6da 5cbb 3261 ec3c d606 d33c 7c4e 0bbb
00000270: 555b af3b f4aa 67bc e979 16bc 0974 21bc
00000280: 69db 83bc 1915 a1bb fcc8 223c c702 b03c
00000290: 5849 d0bc 8597 42bc 1eef 0dbc 789d 67bc
000002a0: 07e6 ca3a 9939 863b ba8e 8d3c bf97 2ebd
000002b0: edc5 5c3c 9539 ac3c 0497 683c 0024 453c
000002c0: 2c87 923c e70f 853c 9ca5 8e3c 1297 18bc
000002d0: 2ca8 74bc 0c91 1fbc dbdb 0fba 2332 233a
000002e0: 8601 90bc f25b 60bc d224 fabc 5b5d 003c
000002f0: 9485 9d3b fb06 5c3c 8e12 33bb 6684 6cb8
00000300: 0df8 3dbc a90e c13c 3959 f4bc c86f f9bb
00000310: b416 6db9 1a5e 9f3b 16f7 2abc 28cd 323c
00000320: 786f f4bb ae53 b13c 2780 d23c d915 fdbb
00000330: dcff 5ebc 6b98 27bb 155c 6ebc 0f44 f53a
00000340: 8f9c dabc 4459 dabc 729e 333c f4d6 9dbc
00000350: bfb7 abbc 4bac 82bc 579d 843c 88f0 7b3c
00000360: 057b c13c cbe9 95bc 874d cf3c 939e 013b
00000370: 423d e3ba c452 223d f181 4c3c 137c f83c
00000380: 8674 1b3c 0377 bc3b 75c1 83bc 60a7 893c
00000390: 1607 693b 017f 15bd 2262 17bc 8777 b3bc
000003a0: 5a5d bebc 2b26 9d3c 5f00 6abd 9fd5 883c
000003b0: 6986 f4bc 8e67 3f3b aeaa 0b3d c320 0b3c
000003c0: 1f22 243b 0573 ce3c e938 45bc be02 a83c
000003d0: 9a0a b0bc 7f74 a03a 1b63 cb3c f7e6 14bc
000003e0: 7b06 66ba dcfc f5ba cfa7 93bc d789 f13b
000003f0: 8093 0e3d 25b8 21bc 16af be3a 2459 c6bc
-0.0037723796 -0.005336897 0.010819778 0.006460681 -0.02206567 -0.01129673 -0.0116363615 0.0032146608
-0.00012458724 0.03970165 -0.017052783 -0.0015991941 -0.009138509 -0.04133031 -0.017507015 0.023223124
-0.022725565 -0.011258955 0.006675425 0.01203716 -0.0016205076 -0.0067735673 0.0051950673 0.014663577
0.0004988546 -0.004068907 -0.005088745 0.0018594594 0.0019638774 -0.015754582 -0.0020585272 -0.020409547
-0.004280227 0.010297198 0.02042413 0.020010602 0.022113925 -0.0058388533 0.032697525 -0.00999728
0.026536625 -0.0069776564 0.022469878 0.017023006 0.0091054775 0.007396225 -0.0061130277 0.025115807
-0.00016578978 -0.015944669 0.011191104 -0.024477145 -0.025680477 -0.0044706273 0.04472138 -0.02107907
0.005574412 0.007162377 0.018497217 0.012532184 0.0051991586 0.009151426 -0.0017165035 -0.021367108
0.0017436581 -0.008316782 -0.014606924 0.018786611 0.003035124 0.011744016 -0.0045663924 -0.0053963535
0.021497821 0.01797686 -0.0019577518 0.027529947 0.021190139 0.010600197 0.004135172 -0.02148745
-0.0033142837 0.022777414 -0.0017678656 -0.0041855075 0.002620182 0.019870097 0.0056590554 0.022625001
0.010534401 -0.009621585 0.004743552 0.027031956 -0.00089910504 -0.016396962 -0.041633394 0.025582124
-0.014209552 -0.004474837 0.016891992 -0.018767398 0.0085697565 0.00988169 0.025870262 0.015676806
-0.006231349 0.03126919 -0.017322658 0.027419874 -0.03179939 0.003485956 -0.004454219 -0.011224902
0.030707387 -0.006576806 0.021795427 -0.035165172 0.016869884 -0.011874365 -0.021440925 -0.0147303725
-0.015865328 -0.009990634 -0.013480835 -0.01840115 -0.007932875 -0.0109416405 -0.0069152256 0.0064693196
-0.011531558 0.009403496 -0.006446227 0.030071242 0.010873207 0.006797783 -0.0023610261 -0.032553643
0.005539297 0.05075748 -0.022963963 -0.013487665 -0.00565459 0.013488139 0.0069406526 0.027258128
-0.01760436 -0.017084066 0.00380399 -0.02216428 0.004665574 0.015919393 -0.0018271299 0.012209968
-0.003369981 0.02885494 0.025760096 -0.0021256497 0.005351464 -0.0141398795 -0.009184339 -0.009854325
-0.016095834 -0.004915845 0.009935614 0.0214857 -0.025425598 -0.011876945 -0.008662967 -0.014136665
0.001547993 0.0040962216 0.017279971 -0.042625185 0.013474924 0.021023551 0.014196161 0.012032509
0.01788672 0.016242934 0.017412953 -0.009313362 -0.014932673 -0.009739172 -0.0005487778 0.00062254275
-0.017578851 -0.0136937965 -0.030535135 0.007834758 0.0048071835 0.013429399 -0.0027324292 -5.639009e-05
-0.011594784 0.02356656 -0.0298277 -0.0076122023 -0.00022610539 0.0048635127 -0.010434886 0.010913171
-0.007459577 0.021646347 0.025695873 -0.0077235517 -0.013610806 -0.0025573026 -0.014548321 0.00187123
-0.026685981 -0.026653893 0.010963069 -0.019267537 -0.02096164 -0.015951296 0.016188307 0.015377171
0.02361823 -0.018299958 0.025305523 0.0019778355 -0.0017336982 0.039629713 0.012482152 0.0303326
0.009488231 0.005751492 -0.016083458 0.016803443 0.0035557202 -0.036498073 -0.009239705 -0.021907581
-0.023237873 0.019183239 -0.05712926 0.016703425 -0.029849248 0.002920601 0.03409832 0.008491698
0.0025044752 0.02520133 -0.012037494 0.02050912 -0.02148943 0.001224175 0.02482753 -0.009088269
-0.00087747694 -0.0018767375 -0.018024353 0.007371168 0.034808636 -0.009870564 0.0014548029 -0.024212427

action_model._continuous_distribution.mu.bias f4 [5]
00000000: 250b 20ba 2823 f4b9 ff01 3fb9 ccab 943a
00000010: b102 43bb
-0.0006105176 -0.000465655 -0.00018215923 0.0011342703 -0.0029756243

action_model._discrete_distribution.branches.0.weight f4 [1, 128]
00000000: 9ff4 c53c 9dad 8cbb 4d66 20bb 90cd f5b9
00000010: 7fbd 68bc 671f 9fbc 0ce2 0e3c b82a 7cbb
00000020: 4793 e1ba f14a 923c aa3b e53b a982 953a
00000030: 9069 9bbb aa7b 7dbc 5e77 39bc 0e1f c83b
00000040: cdc2 583b 36b1 9639 18d1 eb3b 302a ecbb
00000050: d632 12bc 67f2 a1bc 2bc3 af3c a5a2 95bb
00000060: e3c3 14bb 476b 7a3b 2d50 28bc fc93 933c
00000070: 43e4 c5b9 1a49 3a3b 1a02 0b38 a568 afbb
00000080: 9f38 f9ba 15c0 fdbb 309a fbba 88ce 66bb
00000090: 15a3 253b cb18 33bc 6601 9eba 353d 3dbc
000000a0: e23e 923c ad11 f43b a506 5ebc 5f81 b1ba
000000b0: 3e47 0e3c 1a6a e9ba af2c 19b9 0148 a13b
000000c0: 7000 163c a3fa 8cba bd81 6f3c 9327 8e3b
000000d0: 63ba d8bb 23ae 003c ef97 83bc 29cb 42bb
000000e0: e270 bf3a 3974 a03b 75b0 5a3b 6fbd 073c
000000f0: 6054 673c 8b5a d5bc b3f2 3e3c 9d85 44bb
00000100: b994 313b 239f 81bc b245 a1bb 7fed adbb
00000110: e490 2a3b e0d6 d6bb 5b67 303c 1f86 4b3c
00000120: 60d9 fd3b 2799 903b d2b0 4f3c 3068 523c
00000130: fdf9 71bb ff55 00bc 53f9 b4bc ffbf bf38
00000140: a6f7 2a3c 7ba7 3dbc ba5e cb3b f907 bfbc
00000150: c217 94bb 6229 20bb 03e7 ccb9 4aed e7bb
00000160: 70ab 4abb 3e48 3f3b 5a5c 81bc 02d6 5c3c
00000170: 9368 e43a 2782 14ba 26a8 1fbc e298 a5bb
00000180: 5137 213b 7d38 9dbb 30f9 91bb 477f bbbb
00000190: 800a afbc f2c8 8ebb 2def dabb 659e 003c
000001a0: 88e0 6ebb f369 09bc 29cb a03b df31 0f3a
000001b0: a2f4 443b fe53 1ebb 6081 713c 4757 95ba
000001c0: 4026 b13b 04a2 9abb 7b08 49bc 58f6 9d3a
000001d0: 4fc1 35bb 828a 973c 3725 9939 920a 593c
000001e0: 21ff 95bb 1bc7 8aba 2596 ccba 139b 2a3c
000001f0: 7321 d9bb b114 083c 1793 d93b 3d45 edbb
0.024164496 -0.0042931573 -0.0024475039 -0.00046883198 -0.014205336 -0.019424153 0.008720886 -0.003847761
-0.001721003 0.017858 0.006995638 0.0011406738 -0.0047428086 -0.015471378 -0.011319963 0.0061072176
0.0033075095 0.00028742262 0.007196557 -0.0072071776 -0.008923253 -0.019768907 0.021455368 -0.004566508
-0.0022699765 0.0038210915 -0.010273022 0.0180149 -0.00037744836 0.002842492 3.314214e-05 -0.005353051
-0.0019014067 -0.007743845 -0.0019195732 -0.0035218317 0.0025274206 -0.010931204 -0.001205486 -0.011550237
0.01785225 0.007448396 -0.013551389 -0.0013542584 0.008683978 -0.001780811 -0.00014607863 0.0049219136
0.009155378 -0.0010755848 0.014618334 0.0043382137 -0.006614016 0.007854017 -0.016063659 -0.0029723144
0.0014605785 0.0048966673 0.0033369337 0.008284911 0.014119238 -0.02604415 0.011654544 -0.0029986866
0.0027096702 -0.015822953 -0.0049216384 -0.0053078528 0.0026026303 -0.006556377 0.010766829 0.012422114
0.0077468604 0.0044127884 0.012676435 0.012842223 -0.0036922686 -0.007833003 -0.022091543 9.143352e-05
0.010435021 -0.011575575 0.0062063606 -0.023319231 -0.0045194337 -0.0024438729 -0.0003908203 -0.0070778476
-0.0030924939 0.0029187347 -0.015791107 0.013478758 0.0017426185 -0.0005665146 -0.00974468 -0.0050536254
0.0024599622 -0.0047979937 -0.0044547543 -0.0057219598 -0.021367311 -0.0043574506 -0.006681344 0.007850264
-0.003644975 -0.008387077 0.004907031 0.00054624485 0.003005304 -0.002415895 0.014740318 -0.0011393809
0.005406171 -0.004719021 -0.012270088 0.0012051566 -0.002773363 0.018498663 0.0002921016 0.013247149
-0.004577533 -0.0010587903 -0.0015608711 0.010412949 -0.006626302 0.0083057145 0.006639849 -0.00724092

exp_avg f4 [128, 8]
00000000: d307 6c37 d307 6c37 dc0a 6c37 7868 b83a
00000010: 580f 5936 0000 0000 0000 0000 0000 0000
00000020: 1b06 8e31 1b06 8e31 5436 4b30 7ac2 9e33
00000030: 6856 da2f 0000 0000 0000 0000 0000 0000
00000040: 2f1d 2734 2f1d 2734 d7f1 3d34 ee64 9437
00000050: 7135 e9b2 0000 0000 0000 0000 0000 0000
00000060: 69dc 8b32 69dc 8b32 0000 0000 0000 0000
00000070: 0000 0000 0000 0000 0000 0000 0000 0000
00000080: c996 beb5 c996 beb5 bbcd c5b5 bc88 1ab9
00000090: ae5f 6533 0000 0000 0000 0000 0000 0000
000000a0: a27d 3db5 a27d 3db5 32e4 3db5 7e59 94b8
000000b0: e499 70b5 0000 0000 0000 0000 0000 0000
000000c0: b326 b8b1 b326 b8b1 0000 0000 0000 0000
000000d0: 0000 0000 0000 0000 0000 0000 0000 0000
000000e0: 0a74 beb6 0a74 beb6 e546 beb6 64a7 14ba
000000f0: 590d d336 0000 0000 0000 0000 0000 0000
00000100: 5d53 11b1 5d53 11b1 955d e79c 21c1 34a0
00000110: e6ea e31c 0000 0000 0000 0000 0000 0000
00000120: c9fa 9c30 c9fa 9c30 8470 eaa3 e927 37a7
00000130: 32e8 2023 0000 0000 0000 0000 0000 0000
00000140: 8d7c ddb1 8d7c ddb1 91ac 0a32 e7ad 5835
00000150: ecfd 58b2 0000 0000 0000 0000 0000 0000
00000160: e880 94b1 e880 94b1 d0bb eb2c be2a 3830
00000170: b510 4bac 0000 0000 0000 0000 0000 0000
00000180: d879 fa36 d879 fa36 bef0 fb36 19d4 443a
00000190: e581 8136 0000 0000 0000 0000 0000 0000
000001a0: f36b 0c37 f36b 0c37 53c9 0b37 a56a 5a3a
000001b0: 1902 a1b6 0000 0000 0000 0000 0000 0000
000001c0: d313 8db5 d313 8db5 8386 8cb5 5b91 dbb8
000001d0: 4b99 da35 0000 0000 0000 0000 0000 0000
000001e0: 05ea ea2f 05ea ea2f a809 f78e 85ff 4092
000001f0: b234 ee0b 0000 0000 0000 0000 0000 0000
00000200: 596a 9237 596a 9237 8c28 9237 5d5f e43a
00000210: 2d13 b5b6 0000 0000 0000 0000 0000 0000
00000220: 2c46 7f37 2c46 7f37 1c8f 7e37 d2df c63a
00000230: e78a f236 0000 0000 0000 0000 0000 0000
00000240: dc34 bb36 dc34 bb36 4492 ba36 53c2 113a
00000250: 5f6a 1436 0000 0000 0000 0000 0000 0000
00000260: af67 72b7 af67 72b7 b763 72b7 ed5d bdba
00000270: 4eba cbb6 0000 0000 0000 0000 0000 0000
00000280: f1dd 30b7 f1dd 30b7 b387 2fb7 ed21 89ba
00000290: 2a8c 7f35 0000 0000 0000 0000 0000 0000
000002a0: d594 8f31 d594 8f31 aed1 3eaa d713 95ad
000002b0: d632 252a 0000 0000 0000 0000 0000 0000
000002c0: d3bd 4135 d3bd 4135 e7d5 4535 1b8f 9a38
000002d0: ee17 6eb4 0000 0000 0000 0000 0000 0000
000002e0: 3ba4 bb37 3ba4 bb37 2da7 bb37 939a 123b
000002f0: f4d7 9eb6 0000 0000 0000 0000 0000 0000
00000300: 1181 02b7 1181 02b7 d173 02b7 d7d4 4bba
00000310: d7c5 e2b4 0000 0000 0000 0000 0000 0000
00000320: c60b 3737 c60b 3737 3a14 3737 cb07 8f3a
00000330: 0ecd cd35 0000 0000 0000 0000 0000 0000
00000340: 9319 eeb2 9319 eeb2 4591 032b ff92 4d2e
00000350: fc30 96a9 0000 0000 0000 0000 0000 0000
00000360: 6add 1337 6add 1337 3681 1337 c179 663a
00000370: 21c8 22b7 0000 0000 0000 0000 0000 0000
00000380: 93a0 47b7 93a0 47b7 5aa2 47b7 dbf6 9bba
00000390: 4e36 3136 0000 0000 0000 0000 0000 0000
000003a0: c489 bd33 c489 bd33 bcc9 c133 9b65 1737
000003b0: 16a9 76b3 0000 0000 0000 0000 0000 0000
000003c0: e77c 15b3 e77c 15b3 2007 a81d 8e45 0321
000003d0: 506b 949c 0000 0000 0000 0000 0000 0000
000003e0: 2ea7 59b7 2ea7 59b7 ca7c 59b7 82e9 a9ba
000003f0: ab3e ae35 0000 0000 0000 0000 0000 0000
1.4068518e-05 1.4068518e-05 1.4069225e-05 0.001406922 3.234445e-06 0.0 0.0 0.0
4.133438e-09 4.133438e-09 7.3928175e-10 7.3928234e-08 3.9715364e-10 0.0 0.0 0.0
1.5563704e-07 1.5563704e-07 1.7689977e-07 1.7689974e-05 -2.7149072e-08 0.0 0.0 0.0
1.628196e-08 1.628196e-08 0.0 0.0 0.0 0.0 0.0 0.0
-1.4199987e-06 -1.4199987e-06 -1.4737519e-06 -0.00014737522 5.3405238e-08 0.0 0.0 0.0
-7.0590806e-07 -7.0590806e-07 -7.0740055e-07 -7.073859e-05 -8.963091e-07 0.0 0.0 0.0
-5.3595044e-09 -5.3595044e-09 0.0 0.0 0.0 0.0 0.0 0.0
-5.67595e-06 -5.67595e-06 -5.6706945e-06 -0.0005670695 6.289844e-06 0.0 0.0 0.0
-2.1147664e-09 -2.1147664e-09 -1.5310488e-21 -1.5310494e-19 1.508232e-21 0.0 0.0 0.0
1.1421771e-09 1.1421771e-09 -2.5417983e-17 -2.5417987e-15 8.722787e-18 0.0 0.0 0.0
-6.4461063e-09 -6.4461063e-09 8.071894e-09 8.071933e-07 -1.263059e-08 0.0 0.0 0.0
-4.322022e-09 -4.322022e-09 6.699953e-12 6.699955e-10 -2.885731e-12 0.0 0.0 0.0
7.464765e-06 7.464765e-06 7.508409e-06 0.00075084117 3.8596213e-06 0.0 0.0 0.0
8.369784e-06 8.369784e-06 8.33192e-06 0.00083319313 -4.798418e-06 0.0 0.0 0.0
-1.0511088e-06 -1.0511088e-06 -1.0469961e-06 -0.00010469808 1.628688e-06 0.0 0.0 0.0
4.2730633e-10 4.2730633e-10 -6.08995e-30 -6.089947e-28 9.175355e-32 0.0 0.0 0.0
1.7454078e-05 1.7454078e-05 1.7423437e-05 0.001742344 -5.3964527e-06 0.0 0.0 0.0
1.5215523e-05 1.5215523e-05 1.51729e-05 0.0015172905 7.2283324e-06 0.0 0.0 0.0
5.579188e-06 5.579188e-06 5.5602595e-06 0.00055602676 2.2115635e-06 0.0 0.0 0.0
-1.4448465e-05 -1.4448465e-05 -1.4447541e-05 -0.0014447548 -6.07156e-06 0.0 0.0 0.0
-1.0542092e-05 -1.0542092e-05 -1.0462408e-05 -0.0010462381 9.519887e-07 0.0 0.0 0.0
4.178768e-09 4.178768e-09 -1.6948137e-13 -1.694815e-11 1.4672581e-13 0.0 0.0 0.0
7.2174333e-07 7.2174333e-07 7.369949e-07 7.369948e-05 -2.2174183e-07 0.0 0.0 0.0
2.2368613e-05 2.2368613e-05 2.2369984e-05 0.0022369965 -4.733907e-06 0.0 0.0 0.0
-7.778654e-06 -7.778654e-06 -7.775569e-06 -0.0007775551 -4.2239728e-07 0.0 0.0 0.0
1.0910391e-05 1.0910391e-05 1.0912359e-05 0.0010912357 1.5333369e-06 0.0 0.0 0.0
-2.7718476e-08 -2.7718476e-08 4.674215e-13 4.6742162e-11 -6.6698356e-14 0.0 0.0 0.0
8.813435e-06 8.813435e-06 8.791967e-06 0.00087919465 -9.702549e-06 0.0 0.0 0.0
-1.1898711e-05 -1.1898711e-05 -1.1899125e-05 -0.001189913 2.6406665e-06 0.0 0.0 0.0
8.826058e-08 8.826058e-08 9.023958e-08 9.023958e-06 -5.743012e-08 0.0 0.0 0.0
-3.4805364e-08 -3.4805364e-08 4.4476597e-21 4.447658e-19 -9.821558e-22 0.0 0.0 0.0
-1.29731325e-05 -1.29731325e-05 -1.2963263e-05 -0.0012963268 1.2982249e-06 0.0 0.0 0.0

exp_avg_sq f4 [128, 8]
00000000: d9ad 8130 d9ad 8130 07a6 8030 ab0a 1d37
00000010: 7c1e 032f 0000 0000 0000 0000 0000 0000
00000020: e418 682e e418 682e 8908 2923 f056 ce29
00000030: 34bc a021 0000 0000 0000 0000 0000 0000
00000040: 6f08 982e 6f08 982e dbf1 352b c319 de31
00000050: 6985 a429 0000 0000 0000 0000 0000 0000
00000060: c965 c22d c965 c22d 0000 0000 0000 0000
00000070: 0000 0000 0000 0000 0000 0000 0000 0000
00000080: 305c 8f2f 305c 8f2f 507d a02d fce8 4334
00000090: 5270 df2b 0000 0000 0000 0000 0000 0000
000000a0: 2e9c 2a32 2e9c 2a32 94e5 2932 c064 cf38
000000b0: 3e29 b030 0000 0000 0000 0000 0000 0000
000000c0: 1b3d 802c 1b3d 802c 0000 0000 0000 0000
000000d0: 0000 0000 0000 0000 0000 0000 0000 0000
000000e0: a37d 6231 a37d 6231 ec1f 6131 bf67 0938
000000f0: 8283 d92f 0000 0000 0000 0000 0000 0000
00000100: f830 032f f830 032f 27b2 0500 e77e de04
00000110: f6b9 0000 0000 0000 0000 0000 0000 0000
00000120: ee28 f82b ee28 f82b a1be be0a b0d7 6811
00000130: 7a4a 3809 0000 0000 0000 0000 0000 0000
00000140: c6e5 562e c6e5 562e bfd9 8b29 4cb7 2a30
00000150: 808f 0b28 0000 0000 0000 0000 0000 0000
00000160: 3d5b 4e2e 3d5b 4e2e 84cc 341d a7b3 dc23
00000170: d480 b61b 0000 0000 0000 0000 0000 0000
00000180: fe27 5531 fe27 5531 9cfb 5731 52d3 0338
00000190: c144 d22f 0000 0000 0000 0000 0000 0000
000001a0: d72a 8531 d72a 8531 a99d 8231 7871 1f38
000001b0: 3b0d f22f 0000 0000 0000 0000 0000 0000
000001c0: f0b3 5631 f0b3 5631 dd54 5531 0b35 0238
000001d0: f5eb ce2f 0000 0000 0000 0000 0000 0000
000001e0: 0527 982d 0527 982d 0000 0000 0000 0000
000001f0: 0000 0000 0000 0000 0000 0000 0000 0000
00000200: 4668 5532 4668 5532 f49c 5032 93a7 fe38
00000210: cc52 cb30 0000 0000 0000 0000 0000 0000
00000220: 5efb f730 5efb f730 d169 ec30 964b 9037
00000230: 10ba 6a2f 0000 0000 0000 0000 0000 0000
00000240: 3edf f331 3edf f331 7341 dd31 330b 8738
00000250: bd27 5f30 0000 0000 0000 0000 0000 0000
00000260: 39ba db31 39ba db31 85f7 db31 d341 8638
00000270: 7463 5630 0000 0000 0000 0000 0000 0000
00000280: ff70 7331 ff70 7331 d3cf 6531 1444 0c38
00000290: 1c28 da2f 0000 0000 0000 0000 0000 0000
000002a0: 22d2 ff2d 22d2 ff2d a688 3e18 d395 e81e
000002b0: 1209 c016 0000 0000 0000 0000 0000 0000
000002c0: 4c2d 582e 4c2d 582e 61e1 0e2e 226a ae34
000002d0: 60bb 8a2c 0000 0000 0000 0000 0000 0000
000002e0: abdd f731 abdd f731 aded f731 ce52 9738
000002f0: a7a1 6730 0000 0000 0000 0000 0000 0000
00000300: 64cd 2832 64cd 2832 8c82 2832 56b3 cd38
00000310: 0f99 a330 0000 0000 0000 0000 0000 0000
00000320: e1a5 0232 e1a5 0232 8732 0032 ac7d 9c38
00000330: ffc7 7c30 0000 0000 0000 0000 0000 0000
00000340: 4829 892e 4829 892e c76b 6d18 0ee9 101f
00000350: e33f de16 0000 0000 0000 0000 0000 0000
00000360: 519c 5732 519c 5732 925d 5332 dd01 0139
00000370: bcc6 d730 0000 0000 0000 0000 0000 0000
00000380: c3c4 7232 c3c4 7232 3b0f 7332 0f5a 1439
00000390: a125 f430 0000 0000 0000 0000 0000 0000
000003a0: b973 a82c b973 a82c ade8 8c2b 0b02 2c32
000003b0: 5a2f 0a2a 0000 0000 0000 0000 0000 0000
000003c0: 1115 f82e 1115 f82e 042c 0400 44f7 a204
000003d0: 526f 0000 0000 0000 0000 0000 0000 0000
000003e0: e70b 4232 e70b 4232 0c43 4032 d9b1 ea38
000003f0: 11e9 b230 0000 0000 0000 0000 0000 0000
9.435396e-10 9.435396e-10 9.360414e-10 9.360413e-06 1.1925211e-10 0.0 0.0 0.0
5.27728e-11 5.27728e-11 9.163316e-18 9.163319e-14 1.0891839e-18 0.0 0.0 0.0
6.913658e-11 6.913658e-11 6.463976e-13 6.463979e-09 7.306206e-14 0.0 0.0 0.0
2.2100448e-11 2.2100448e-11 0.0 0.0 0.0 0.0 0.0 0.0
2.6077052e-10 2.6077052e-10 1.8245544e-11 1.824555e-07 1.5876278e-12 0.0 0.0 0.0
9.9308135e-09 9.9308135e-09 9.889295e-09 9.889295e-05 1.2817407e-09 0.0 0.0 0.0
3.644763e-12 3.644763e-12 0.0 0.0 0.0 0.0 0.0 0.0
3.2958745e-09 3.2958745e-09 3.2759955e-09 3.2759966e-05 3.9565512e-10 0.0 0.0 0.0
1.1931778e-10 1.1931778e-10 5.23086e-40 5.230849e-36 6.671e-41 0.0 0.0 0.0
1.763282e-12 1.763282e-12 1.8368041e-32 1.8368037e-28 2.2183213e-33 0.0 0.0 0.0
4.8862046e-11 4.8862046e-11 6.210613e-14 6.210612e-10 7.747167e-15 0.0 0.0 0.0
4.6920013e-11 4.6920013e-11 2.3928534e-21 2.3928534e-17 3.0192628e-22 0.0 0.0 0.0
3.1018312e-09 3.1018312e-09 3.1429641e-09 3.142964e-05 3.824763e-10 0.0 0.0 0.0
3.8756798e-09 3.8756798e-09 3.801422e-09 3.801423e-05 4.4028944e-10 0.0 0.0 0.0
3.1243381e-09 3.1243381e-09 3.1043819e-09 3.1043815e-05 3.763884e-10 0.0 0.0 0.0
1.7297727e-11 1.7297727e-11 0.0 0.0 0.0 0.0 0.0 0.0
1.2421941e-08 1.2421941e-08 1.21428805e-08 0.00012142877 1.4793726e-09 0.0 0.0 0.0
1.8043058e-09 1.8043058e-09 1.7201335e-09 1.7201335e-05 2.1348279e-10 0.0 0.0 0.0
7.0976105e-09 7.0976105e-09 6.4393872e-09 6.439388e-05 8.11834e-10 0.0 0.0 0.0
6.39491e-09 6.39491e-09 6.4018786e-09 6.4018786e-05 7.799408e-10 0.0 0.0 0.0
3.5425385e-09 3.5425385e-09 3.344202e-09 3.3442004e-05 3.9682468e-10 0.0 0.0 0.0
2.9083461e-11 2.9083461e-11 2.4625914e-24 2.4625921e-20 3.1024997e-25 0.0 0.0 0.0
4.9152946e-11 4.9152946e-11 3.248724e-11 3.2487247e-07 3.9429987e-12 0.0 0.0 0.0
7.213847e-09 7.213847e-09 7.2156667e-09 7.215665e-05 8.426703e-10 0.0 0.0 0.0
9.8255875e-09 9.8255875e-09 9.80857e-09 9.808566e-05 1.1903313e-09 0.0 0.0 0.0
7.604712e-09 7.604712e-09 7.462069e-09 7.462068e-05 9.196128e-10 0.0 0.0 0.0
6.237372e-11 6.237372e-11 3.0685946e-24 3.0685964e-20 3.5906353e-25 0.0 0.0 0.0
1.2550189e-08 1.2550189e-08 1.2303092e-08 0.00012303093 1.5699793e-09 0.0 0.0 0.0
1.4130992e-08 1.4130992e-08 1.4147925e-08 0.0001414793 1.7764031e-09 0.0 0.0 0.0
4.787695e-12 4.787695e-12 1.0012179e-12 1.0012182e-08 1.227329e-13 0.0 0.0 0.0
1.12814764e-10 1.12814764e-10 3.83132e-40 3.8313095e-36 3.9934e-41 0.0 0.0 0.0
1.12949925e-08 1.12949925e-08 1.1191116e-08 0.00011191116 1.3017446e-09 0.0 0.0 0.0

exp_avg f4 [128]
00000000: 1a09 6c37 34cc 8d31 2908 2734 40a7 8732
00000010: 099b beb5 4f95 3db5 6825 beb1 ef72 beb6
00000020: 6382 0fb1 6c0a 1730 3dcf e6b1 3e52 7cb1
00000030: e776 fa36 f06b 0c37 630e 8db5 0d09 5d2e
00000040: 7869 9237 e745 7f37 4731 bb36 5767 72b7
00000050: c6de 30b7 187c 8531 7fe4 4135 fea4 bb37
00000060: 497e 02b7 670f 3737 7a6e eeb2 addb 1337
00000070: 47a4 47b7 5c49 bf33 6e55 14b3 0aa6 59b7
00000080: 5765 4c32 715a 1cb7 5afa 0a33 ce20 9737
00000090: fa63 bf36 29e4 adb6 0cfa 9fb4 9967 1b30
000000a0: 0fde 6f36 a3b2 7fb2 fe0a 22b7 7630 23b7
000000b0: c6f4 bd36 0d2c 0fb1 c757 8532 d3e7 1eaf
000000c0: f3e0 aa34 b619 3436 216e 06b2 0259 dd32
000000d0: ca47 fe32 a4f7 7936 d103 4a37 80d1 3333
000000e0: 31f8 24b7 e1d9 b5b6 71d6 ae30 c22b 6b36
000000f0: b3e6 4832 58a4 9cb6 c6f3 fcb1 14a9 8a31
00000100: 5126 cdb5 79a2 9336 ca17 e0b1 a43e e4b2
00000110: c802 82b2 9454 e0b3 a3c3 aab1 f5f6 4937
00000120: 7099 f1b6 b53f 09b5 8247 8f37 ca7b 8832
00000130: 6272 fa32 85e4 deb2 6730 5eb7 0e49 81b1
00000140: bdfc b5b5 f4b1 f9b5 f597 5d36 ade6 d632
00000150: 12e6 9437 e36e 8032 7f74 d836 13f3 4032
00000160: 6d42 a1b4 3216 52b7 b5e1 c6b2 2d40 9a37
00000170: d5a0 87b7 7bd4 4437 9d98 9536 1e83 88b6
00000180: 2f06 d237 88fe d5b6 99b7 82b1 9724 11b5
00000190: bc38 d1b6 5c9e 4436 cf15 f5b6 2f69 5c36
000001a0: 3914 4236 603b 07b7 1ef9 1132 de97 0137
000001b0: 4bd9 f237 5f93 4036 204d b031 ccc3 3d2f
000001c0: f1cf 89b7 1ac4 acb5 de71 9031 120e 3fb1
000001d0: 2769 8537 a49e f4b2 557c 2437 4b62 11b7
000001e0: 911a b2b1 6316 3cb2 0cff f931 c372 aa30
000001f0: 4cb2 f532 9510 0731 9acf f1b6 bbe8 1c37
1.4068815e-05 4.1268553e-09 1.5556056e-07 1.5792125e-08 -1.4201224e-06 -7.062526e-07 -5.5339804e-09 -5.6758213e-06
-2.0883355e-09 5.494829e-10 -6.7174413e-09 -3.6717576e-09 7.4644227e-06 8.369781e-06 -1.0509506e-06 5.025762e-11
1.7453669e-05 1.521546e-05 5.578771e-06 -1.4448385e-05 -1.0542286e-05 3.8849173e-09 7.223061e-07 2.2368968e-05
-7.778007e-06 1.0911236e-05 -2.7757086e-08 8.81303e-06 -1.1899573e-05 8.9074746e-08 -3.4536633e-08 -1.2972867e-05
1.1897405e-08 -9.319382e-06 3.2358322e-08 1.8015879e-05 5.7038824e-06 -5.182363e-06 -2.979799e-07 5.653589e-10
3.574303e-06 -1.4883571e-08 -9.658512e-06 -9.72684e-06 5.6611343e-06 -2.0834279e-09 1.5523154e-08 -1.4452377e-10
3.182864e-07 2.6837056e-06 -7.824867e-09 2.5768262e-08 2.9602138e-08 3.7248037e-06 1.2041027e-05 4.1867224e-08
-9.832948e-06 -5.419585e-06 1.2721114e-09 3.50432e-06 1.1693987e-08 -4.6682944e-06 -7.361879e-09 4.0355506e-09
-1.5284842e-06 4.3998557e-06 -6.5219625e-09 -2.6571179e-08 -1.5135257e-08 -1.04461975e-07 -4.9698925e-09 1.2038033e-05
-7.200222e-06 -5.1129183e-07 1.7080227e-05 1.5888777e-08 2.9155846e-08 -2.594812e-08 -1.3243501e-05 -3.7626995e-09
-1.3559107e-06 -1.8603737e-06 3.3020017e-06 2.5017778e-08 1.775011e-05 1.4951587e-08 6.4508636e-06 1.123114e-08
-3.0036918e-07 -1.2522143e-05 -2.3152873e-08 1.8388115e-05 -1.6168147e-05 1.1731982e-05 4.4583126e-06 -4.06838e-06
2.503683e-05 -6.377526e-06 -3.8043706e-09 -5.4069955e-07 -6.23529e-06 2.9298453e-06 -7.304108e-06 3.284378e-06
2.8920024e-06 -8.060451e-06 8.4967535e-09 7.7243585e-06 2.8949833e-05 2.869601e-06 5.1310423e-09 1.7259011e-10
-1.6428503e-05 -1.2872072e-06 4.203897e-09 -2.7802156e-09 1.59038e-05 -2.847748e-08 9.80411e-06 -8.665559e-06
-5.183502e-09 -1.094813e-08 7.2758493e-09 1.2401745e-09 2.8602834e-08 1.9654511e-09 -7.2065277e-06 9.352511e-06

exp_avg_sq f4 [128]
00000000: 4cc0 8130 42ea 672e 8576 972e 72a1 c22d
00000010: ba0d 8f2f c9a9 2a32 25d8 802c 637c 6231
00000020: 4ee6 022f 0bcc 012c b4fa 582e e06f 4f2e
00000030: 3ff0 5431 873c 8531 c2b8 5631 5f44 982d
00000040: 0381 5532 88f8 f730 53e4 f331 a2b2 db31
00000050: e368 7331 468d 002e 0786 582e ced4 f731
00000060: 20be 2832 b8a0 0232 ca95 892e 6e94 5732
00000070: ebd5 7232 9c63 ae2c 3acc f62e ab11 4232
00000080: 160c 7f2e d8fa f731 ce72 462e 85dc a731
00000090: 4406 5631 6385 a431 3dc1 e12e 6bd9 7429
000000a0: 086a 9431 8b30 302e ea2c 1332 e45a e231
000000b0: 877a 7e31 d1dc 072b 776a 722e 645a 072a
000000c0: 5237 c131 2345 1732 976e 0b2e bd17 f92d
000000d0: 1f6b cc2e 0dae fa31 fcd0 a030 ad9e b12e
000000e0: a130 b731 4932 0732 cd51 c129 822f 1931
000000f0: e54c ac2e 39d2 d931 9f2c 942d b143 852d
00000100: baf3 4d32 945d 2231 5e4a af2d 0fff a22e
00000110: f1b7 cf2d 737f d431 e74d c02d d802 9c31
00000120: ca85 d931 9d53 2a32 4a6d c131 155c 342d
00000130: f2f3 d12e 8b0e 0f2e c327 1432 9c95 052d
00000140: 1616 3832 5f99 8631 9aa6 6831 8f08 602f
00000150: f226 f530 f277 e62d cb6c a031 1384 042d
00000160: b3e6 2b30 15de b831 caf9 ee2e 5c7e b531
00000170: 41c9 fc31 1608 c131 cbee 0232 3891 c231
00000180: 27f2 5232 79fa 1732 4e57 4e2e de17 9231
00000190: 4245 2632 dd4b 8431 6d1e 3531 28b4 0932
000001a0: 83a3 b630 2e01 3b32 870b 252e 3b63 2732
000001b0: 32e2 2832 1c52 e830 59b0 202d 6c3c 2b2e
000001c0: 813d 9132 052a ea31 11d9 dd2d 9ead eb2b
000001d0: b59f 9131 2a1a 792e 9f2e 3b31 9521 1132
000001e0: 3e1b 0b2f 0ac8 382e 57d1 222e 29ee 162c
000001f0: 581c 1a2e 2aca 872c 2a68 3332 351d 0732
9.440639e-10 5.2731382e-11 6.887738e-11 2.2126943e-11 2.6021302e-10 9.933907e-09 3.6619757e-12 3.2958034e-09
1.1905252e-10 1.844527e-12 4.9335383e-11 4.7165716e-11 3.0986624e-09 3.8776906e-09 3.1246121e-09 1.7310762e-11
1.2427566e-08 1.8042252e-09 7.0981883e-09 6.394047e-09 3.5420775e-09 2.9229306e-11 4.9231754e-11 7.212839e-09
9.8221165e-09 7.603539e-09 6.2566466e-11 1.2548396e-08 1.4134893e-08 4.9564363e-12 1.1223063e-10 1.12963034e-08
5.799102e-11 7.2171638e-09 4.5121955e-11 4.88541e-09 3.114466e-09 4.7881925e-09 1.02661414e-10 5.4367464e-14
4.3194213e-09 4.006088e-11 8.566738e-09 6.5877988e-09 3.7031513e-09 4.826808e-13 5.511899e-11 1.2021769e-13
5.6233285e-09 8.805077e-09 3.1703164e-11 2.8318565e-11 9.2958745e-11 7.295745e-09 1.1700929e-09 8.0772146e-11
5.3315294e-09 7.869468e-09 8.585112e-14 2.2291435e-09 7.8353136e-11 6.3394308e-09 1.6845468e-11 1.515041e-11
1.19879875e-08 2.3627296e-09 1.9928222e-11 7.4122146e-11 2.3614862e-11 6.1845014e-09 2.1862468e-11 4.540521e-09
6.3307413e-09 9.914314e-09 5.629464e-09 1.0252262e-11 9.547553e-11 3.2527352e-11 8.623775e-09 7.593395e-12
1.0715231e-08 3.9173496e-09 3.3855145e-09 2.0375722e-10 1.7837165e-09 2.6201239e-11 4.668981e-09 7.532658e-12
6.253728e-10 5.3803526e-09 1.08673584e-10 5.2821587e-09 7.357045e-09 5.6179585e-09 7.621291e-09 5.6626526e-09
1.2278668e-08 8.846308e-09 4.691652e-11 4.2518726e-09 9.678219e-09 3.8503303e-09 2.6356262e-09 8.015412e-09
1.3288716e-09 1.0885101e-08 3.7526895e-11 9.743242e-09 9.830318e-09 1.6903559e-09 9.134104e-12 3.8934564e-11
1.690819e-08 6.8150734e-09 2.5221188e-11 1.6745943e-12 4.238212e-09 5.6639284e-11 2.7238583e-09 8.4477465e-09
1.2651655e-10 4.2014427e-11 3.7020467e-11 2.1448488e-12 3.504072e-11 3.8593755e-12 1.04428555e-08 7.864675e-09
