DAinGD Lab#5/MLA_Lab4/results/EconomicX/Economic/Economic-1591.pt (torch, 154591 bytes, 13 tensors)

network_body._body_endoder.seq_layers.0.weight f4 [128, 8]
000000 62 4a 16 be f2 86 c0 3e 2d 71 e2 bc fb 2c 86 be
       -0.14676812 0.37602955 -0.027641857 -0.26206192
000010 e5 9a 4c 3b d9 b0 cd 3e 4a c8 1e 3f 7d db 0f 3f
       0.0031220254 0.40173987 0.62024367 0.5619429
000020 12 25 1f be 7f c9 c7 3e 96 79 33 be 51 c4 93 bd
       -0.15541485 0.39020917 -0.1752685 -0.07215179
000030 ce 54 a4 be 9e ff 8e 3e 85 31 73 be 7c 75 89 3e
       -0.3209595 0.27929395 -0.23749359 0.26847446
000040 04 30 a5 3d b7 f2 0c 3f d4 b0 e8 bd 0a ca 9b 3b
       0.08065799 0.55057853 -0.11361852 0.0047543095
000050 ae b7 6c 3e 5f 32 ac 3d a2 f7 21 be 66 34 a1 3e
       0.23116943 0.08408045 -0.1581712 0.3148529
000060 b4 c8 68 be 8c 09 16 be 53 5d 8b 3e 13 31 d2 bd
       -0.22732812 -0.1465208 0.27219638 -0.102632664
000070 78 44 4e be 2b d8 7f 3e 29 e1 03 3e 23 a8 33 be
       -0.20143306 0.24984805 0.1287886 -0.17544608
000080 86 57 01 3f 06 b8 9e bd e9 e9 2e 3f 58 96 40 bf
       0.50524175 -0.077499434 0.6832567 -0.75229406
000090 0c f8 67 be 9e 2f 1d 3f 72 4b 87 be 3c 42 08 3f
       -0.22653216 0.61400783 -0.26424748 0.53226066
0000a0 6e 89 8b be 3c 05 d7 3e 6c cc 69 3e be aa fd bd
       -0.27253288 0.4199618 0.22831887 -0.12386082
0000b0 cc 2e e7 3e 1d e5 20 3e b0 c0 8d be c9 e0 82 3f
       0.4515289 0.157124 -0.2768607 1.0224849
0000c0 f9 20 6c be 3a be d7 be 19 b3 c0 be e5 2e 25 be
       -0.23059453 -0.4213732 -0.3763664 -0.1613117
0000d0 de c6 ac 3e d8 25 7d 3e 60 15 ba 3d 44 cd ca be
       0.33745474 0.24721467 0.09086108 -0.3960973
0000e0 4c 93 b3 be f1 af ef be 8b 7a a9 3e 76 06 7d 3e
       -0.35073316 -0.4681392 0.33101305 0.24709496
0000f0 40 c2 4a bd 54 96 fd bb 65 4c cd be 32 4d 1b be
       -0.049501657 -0.007738868 -0.40097347 -0.15166166
000100 95 33 af be 94 96 72 be 98 44 4d 3e 71 47 27 3f
       -0.3421904 -0.23690253 0.20045698 0.65343386
000110 da f7 ae 3e 26 62 8f 3c 26 51 d1 3e f4 c2 06 bf
       0.3417347 0.017502856 0.40882224 -0.52641225
000120 08 c8 66 be 58 15 1d bc 5a 27 30 bd ed 0f f1 bd
       -0.22537243 -0.009587608 -0.04300628 -0.11770616
000130 ac 15 4b be ce 42 8f be a7 82 b4 3e e1 c7 c6 3e
       -0.19832486 -0.27980655 0.3525593 0.3882437
000140 9c ba 1c bf 7a 2e bc bd 2b 36 02 bf 53 59 87 be
       -0.61222243 -0.09188552 -0.50863904 -0.26435336
000150 3f 1a 21 be c5 b4 cc 3e a6 21 b5 3e 8a 1d d1 3e
       -0.15732668 0.39981666 0.35377234 0.4084285
000160 79 56 73 3f b8 ee 37 bc c3 47 9d be ec 1b e3 be
       0.9505382 -0.011226349 -0.30718812 -0.4435724
000170 b4 a0 f7 3e b3 be 9a be 29 1f 7f 3e 09 04 58 3f
       0.48364794 -0.30223617 0.2491423 0.8438116
000180 69 24 b0 3e 26 3e d3 3e 97 3e 38 bd 1e 01 4f be
       0.3440278 0.41258353 -0.044981565 -0.2021527
000190 0f 1f 8d 3c 74 a7 4a bd 65 1e 04 3f 4a 26 81 3e
       0.017226724 -0.049476102 0.5160888 0.25224525
0001a0 f5 2a 16 3c bb e9 33 3f 5f 49 a5 3c de ff 15 be
       0.009165515 0.7027852 0.020176588 -0.14648387
0001b0 8c de 09 bf 9e 71 14 bd 79 ba b5 3e 4d 99 66 3e
       -0.53855205 -0.036241166 0.3549383 0.22519417
0001c0 98 fa d1 3e c1 bb c9 3e a5 9d 17 bb 8b 5e 5e bd
       0.410115 0.39401057 -0.0023134735 -0.054289382
0001d0 fb 6f 13 3f c6 b9 f9 3c 36 d2 20 be d0 27 b7 be
       0.57592744 0.030484091 -0.15705189 -0.35772562
0001e0 31 9b 9f 3c cb 9f 15 3f 20 0d d9 bd 09 75 d2 3e
       0.01948318 0.5844695 -0.105982065 0.41104916
0001f0 ee 15 32 bf 2b 3a 07 be 78 00 2b 3e ea f3 a9 be
       -0.6956471 -0.13205783 0.16699398 -0.33193904
000200 01 93 25 be ec c8 b5 be 6d 99 77 bd ea de a2 be
       -0.16169359 -0.35504854 -0.060449053 -0.31810695
000210 a2 eb e0 3c 50 45 6b 3e b1 f7 ba 3e 07 f2 a4 3e
       0.027456108 0.2297566 0.365171 0.32215902
000220 db e0 ea 3e 05 23 51 3f 2b b8 9c be a0 61 9a be
       0.45874676 0.8169406 -0.3060926 -0.30152607
000230 ae 46 43 be 6b bb 03 bf 0d 5c 77 be 17 fc 22 3d
       -0.19069931 -0.5145785 -0.24156208 0.039791193
000240 49 bc c3 3d eb 14 7f 3e 33 28 86 3e 69 7f b8 be
       0.09557397 0.24910323 0.26202545 -0.36034706
000250 50 50 fb bc 3c b7 59 3e 2d 21 fc be c6 47 03 bb
       -0.030677944 0.21261305 -0.4924406 -0.0020031794
000260 f6 1b 8d 3e 8c e1 9f 3b 37 16 02 bf 93 06 95 3f
       0.27560395 0.004879182 -0.5081515 1.1642631
000270 0a e8 8d be 38 d2 a2 3e d0 c9 dc be 99 f3 f2 3e
       -0.27716094 0.3180101 -0.4312272 0.47451475
000280 d5 f1 0d bf 77 6f a3 be c4 42 db be 6f 35 a8 ba
       -0.5544713 -0.31920978 -0.42824376 -0.0012833307
000290 8d 11 e0 3e 8b af 73 be 9b 1d fc 3e 92 df 83 bf
       0.4376339 -0.23797433 0.49241337 -1.0302603
0002a0 51 2a a6 3e 99 dc 7b 3e b1 4e 89 3e 45 f4 ac bd
       0.3245416 0.2459587 0.2681785 -0.08445028
0002b0 3f d3 dd be 15 0d 83 bd ec 9e 0f bc 8c ed c7 3e
       -0.4332523 -0.063989796 -0.008765917 0.3904842
0002c0 f9 12 27 3e 44 81 48 be 5c fb f1 be 5f 59 a9 bb
       0.16315831 -0.19580561 -0.47262084 -0.0051681246
0002d0 13 05 03 3f a9 4c 35 3e 02 ce bc 3e d2 f0 68 3e
       0.5117962 0.17705025 0.3687592 0.22748116
0002e0 4e 0b 9f 3d a3 17 37 3e 8e fd 55 3d 77 30 15 bf
       0.07765828 0.1788011 0.05224376 -0.58277076
0002f0 ab 5e 0e 3e ed 41 74 be c9 23 01 3e 4a 63 d6 3e
       0.139033 -0.23853274 0.12611307 0.41872627
000300 b8 32 14 3f 43 82 f3 be 12 ca d2 3e 25 18 f3 3e
       0.5788989 -0.4756032 0.41169792 0.47479358
000310 60 4c 15 3c e4 12 bc 3e 1a d4 d8 3e 88 64 f8 3e
       0.0091124475 0.36733162 0.4234932 0.485142
000320 de af cc 3d 3e 0b 98 bd b9 4d 20 3f 4c 70 31 be
       0.099944815 -0.07424019 0.62618595 -0.17327994
000330 bc 1d b2 3d 72 57 e0 3d 93 0a e5 be 88 f0 10 3f
       0.08697078 0.10954179 -0.4473463 0.5661702
000340 4d 01 12 3e bb d0 8c 3e 5c b1 88 be b8 49 9d be
       0.14258309 0.27503 -0.26697814 -0.30720305
000350 a4 2c c7 bb a3 30 a3 3e 33 b7 ab 3e 7a bb b6 3e
       -0.0060783196 0.31873044 0.33538207 0.35689908
000360 bb 28 2a bc 4b 67 34 bf bf a1 dd 3d a7 56 c8 be
       -0.010385687 -0.7047011 0.10821866 -0.3912861
000370 23 fb 36 3e 6b 87 0f 3d 74 61 3c bf 92 c5 16 be
       0.17869239 0.035041254 -0.735862 -0.14723805
000380 ea 9e c1 be d2 14 b8 3e 43 eb 1f 3d f6 df eb be
       -0.37816554 0.35953385 0.039042722 -0.46069306
000390 48 31 37 3d 8e 60 0c bf b6 b7 57 3e 35 2e 0a 3e
       0.044724733 -0.5483483 0.21066174 0.13494189
0003a0 71 85 d8 be 2d f6 71 3e e7 c8 91 3e 90 67 da ba
       -0.42289308 0.23629065 0.2847359 -0.0016662944
0003b0 50 9a 43 be d2 1e 5c be f5 02 bb 3e 1f c0 e8 be
       -0.19101834 -0.21496132 0.36525694 -0.45459077
0003c0 76 a1 93 3e b7 bf fd bd f3 91 97 be 13 43 f4 bd
       0.28834122 -0.12390082 -0.29603538 -0.11926856
0003d0 1b 33 71 3e 89 f1 96 3e 07 16 87 be bf f4 9a 3e
       0.23554651 0.29481152 -0.26383993 0.3026485
0003e0 ca 48 07 be 32 23 4b 3e 1d 3c c9 be cc f2 62 3e
       -0.1321136 0.19837645 -0.39303675 0.22162932
0003f0 8c 09 a8 3d d9 71 49 3d 52 bf 2d bf 8d 77 a4 3e
       0.08204946 0.04918084 -0.67870057 0.3212246

network_body._body_endoder.seq_layers.0.bias f4 [128]
000000 00 00 00 00 00 00 00 00 00 00 00 00 00 00 00 00
       0.0 0.0 0.0 0.0
000010 00 00 00 00 00 00 00 00 00 00 00 00 00 00 00 00
       0.0 0.0 0.0 0.0
000020 00 00 00 00 00 00 00 00 00 00 00 00 00 00 00 00
       0.0 0.0 0.0 0.0
000030 00 00 00 00 00 00 00 00 00 00 00 00 00 00 00 00
       0.0 0.0 0.0 0.0
000040 00 00 00 00 00 00 00 00 00 00 00 00 00 00 00 00
       0.0 0.0 0.0 0.0
000050 00 00 00 00 00 00 00 00 00 00 00 00 00 00 00 00
       0.0 0.0 0.0 0.0
000060 00 00 00 00 00 00 00 00 00 00 00 00 00 00 00 00
       0.0 0.0 0.0 0.0
000070 00 00 00 00 00 00 00 00 00 00 00 00 00 00 00 00
       0.0 0.0 0.0 0.0
000080 00 00 00 00 00 00 00 00 00 00 00 00 00 00 00 00
       0.0 0.0 0.0 0.0
000090 00 00 00 00 00 00 00 00 00 00 00 00 00 00 00 00
       0.0 0.0 0.0 0.0
0000a0 00 00 00 00 00 00 00 00 00 00 00 00 00 00 00 00
       0.0 0.0 0.0 0.0
0000b0 00 00 00 00 00 00 00 00 00 00 00 00 00 00 00 00
       0.0 0.0 0.0 0.0
0000c0 00 00 00 00 00 00 00 00 00 00 00 00 00 00 00 00
       0.0 0.0 0.0 0.0
0000d0 00 00 00 00 00 00 00 00 00 00 00 00 00 00 00 00
       0.0 0.0 0.0 0.0
0000e0 00 00 00 00 00 00 00 00 00 00 00 00 00 00 00 00
       0.0 0.0 0.0 0.0
0000f0 00 00 00 00 00 00 00 00 00 00 00 00 00 00 00 00
       0.0 0.0 0.0 0.0
000100 00 00 00 00 00 00 00 00 00 00 00 00 00 00 00 00
       0.0 0.0 0.0 0.0
000110 00 00 00 00 00 00 00 00 00 00 00 00 00 00 00 00
       0.0 0.0 0.0 0.0
000120 00 00 00 00 00 00 00 00 00 00 00 00 00 00 00 00
       0.0 0.0 0.0 0.0
000130 00 00 00 00 00 00 00 00 00 00 00 00 00 00 00 00
       0.0 0.0 0.0 0.0
000140 00 00 00 00 00 00 00 00 00 00 00 00 00 00 00 00
       0.0 0.0 0.0 0.0
000150 00 00 00 00 00 00 00 00 00 00 00 00 00 00 00 00
       0.0 0.0 0.0 0.0
000160 00 00 00 00 00 00 00 00 00 00 00 00 00 00 00 00
       0.0 0.0 0.0 0.0
000170 00 00 00 00 00 00 00 00 00 00 00 00 00 00 00 00
       0.0 0.0 0.0 0.0
000180 00 00 00 00 00 00 00 00 00 00 00 00 00 00 00 00
       0.0 0.0 0.0 0.0
000190 00 00 00 00 00 00 00 00 00 00 00 00 00 00 00 00
       0.0 0.0 0.0 0.0
0001a0 00 00 00 00 00 00 00 00 00 00 00 00 00 00 00 00
       0.0 0.0 0.0 0.0
0001b0 00 00 00 00 00 00 00 00 00 00 00 00 00 00 00 00
       0.0 0.0 0.0 0.0
0001c0 00 00 00 00 00 00 00 00 00 00 00 00 00 00 00 00
       0.0 0.0 0.0 0.0
0001d0 00 00 00 00 00 00 00 00 00 00 00 00 00 00 00 00
       0.0 0.0 0.0 0.0
0001e0 00 00 00 00 00 00 00 00 00 00 00 00 00 00 00 00
       0.0 0.0 0.0 0.0
0001f0 00 00 00 00 00 00 00 00 00 00 00 00 00 00 00 00
       0.0 0.0 0.0 0.0

network_body._body_endoder.seq_layers.2.weight f4 [128, 128]
000000 0a 54 9b 3b f9 b8 41 3d 4b 96 77 bb 77 f8 ed 3d
       0.004740243 0.047295544 -0.003777879 0.116196565
000010 56 38 9d 3d 24 8d 49 bc 6a 9c 15 3d 14 a4 85 bc
       0.07676761 -0.012301717 0.03652612 -0.01631359
000020 be fb f3 bd 49 8d eb bd 3c 73 f1 bd 58 a2 0f 3c
       -0.119132504 -0.115015574 -0.11789557 0.008766733
000030 6f e9 4b 3b ca a3 b7 3c 22 e6 a7 3d e5 95 2e bd
       0.003111448 0.022416968 0.08198191 -0.04262342
000040 4f a7 15 3e 72 f7 86 3d 58 cd 3c 3d 28 0c f8 bc
       0.14614604 0.06590165 0.04609427 -0.030279234
000050 d2 d2 22 be cc 9f 86 bd 91 59 79 bd 36 54 91 bd
       -0.15900734 -0.065734476 -0.060876433 -0.0709614
000060 e2 41 aa bd a6 64 53 3d f5 a9 d4 3c 3f f5 12 3e
       -0.083133474 0.051609658 0.025959948 0.14351366
000070 72 1d 9c bd 98 e4 27 3d c1 aa 38 bc 75 81 17 be
       -0.07622804 0.04098949 -0.01127118 -0.14795478
000080 0a 0e 1f bd 5f 41 55 bd f8 08 09 3d ca 67 4e bd
       -0.038831748 -0.052064296 0.03345582 -0.05039195
000090 af ad 02 3e 3a ac 02 be 44 01 36 bd 25 6b 36 bd
       0.12761568 -0.12761012 -0.0444348 -0.044535775
0000a0 f9 b2 87 3d 7c 1f ca bc 16 e8 8e bb 8e 72 10 3d
       0.06625933 -0.024673216 -0.004361163 0.035265498
0000b0 77 58 31 3d ed 28 61 3d af 51 58 3d 40 ae 06 3d
       0.043297257 0.05497067 0.052812275 0.03288102
0000c0 de 87 bf 3d 91 e6 e5 bc 93 bb 8a bd f5 73 c1 3d
       0.093520865 -0.028064044 -0.06774058 0.09445945
0000d0 6f ca 43 bc 8f 52 00 3e 03 ef ca 3d 1a 1d 1f 3d
       -0.011950119 0.12531494 0.09908869 0.038846113
0000e0 b5 77 41 bd 52 7f d0 3c be 84 1f 3c 10 b8 71 bd
       -0.047233302 0.025451336 0.009736238 -0.059013426
0000f0 48 35 3c 3e c4 5d 01 be c6 32 01 bd f5 3f c7 3d
       0.183797 -0.12633425 -0.031542562 0.09728996
000100 bf ee 6d bd 5a 01 80 3c 87 b9 70 3d 70 b9 f2 3d
       -0.058089014 0.015625644 0.058770683 0.11851776
000110 a1 31 16 be f7 29 29 3e 9e 71 45 bd 67 dd bf bc
       -0.1466737 0.16519915 -0.048204057 -0.023421003
000120 4a 7c 92 3d 66 b9 32 bd 33 fa ca bc a4 4a 3d bc
       0.071526125 -0.04363384 -0.024777507 -0.01155344
000130 c3 18 89 3b ce 9b 28 3e cb 11 e3 bc 8e 0a 01 be
       0.00418386 0.16465685 -0.027718445 -0.12601683
000140 a4 84 c0 bb 1a 8b a6 bd 90 10 97 bc 43 5f 49 ba
       -0.005875187 -0.08132 -0.018440515 -0.00076817366
000150 c0 75 80 3c b1 31 73 bc 9f 62 81 bb c8 06 0f 3d
       0.015681148 -0.01484339 -0.003948524 0.034918576
000160 75 72 15 3d e2 78 3e bd 95 99 1b 3d ba 62 83 bd
       0.036486108 -0.046502 0.037988264 -0.06415315
000170 3a 87 17 3e 70 a0 93 bc 2d db 1d 3e a6 12 9c 3d
       0.14797679 -0.018020838 0.1541564 0.076207444
000180 96 d2 e5 bc 1f cc c6 3d 34 2d 0b bc d4 45 10 bd
       -0.028054517 0.09706902 -0.008494664 -0.035222843
000190 b0 4e 94 bc a4 1b ed bb 8c 3d 76 bd eb f8 80 3c
       -0.018103927 -0.007235961 -0.06011729 0.015743693
0001a0 7a b3 33 be 84 99 e1 bd e5 69 a6 bd 07 d7 07 be
       -0.17548934 -0.11015609 -0.081256665 -0.1326562
0001b0 71 ea d1 3d ee f5 cb 3c 16 88 e8 3c 4f b0 23 3d
       0.10249794 0.024897542 0.028385203 0.039963063
0001c0 3d d3 bd bd 57 35 98 bd a9 bc 8a 3d 81 cb 7c bd
       -0.09268806 -0.07432049 0.06774265 -0.061717514
0001d0 95 e0 9c bc 18 9e 29 bc eb 45 48 3e 29 b1 c4 bd
       -0.019150058 -0.010352634 0.19557922 -0.09604103
0001e0 3a 31 b1 bd 6f 7b dd bb 52 f2 8c 3c f9 7c 8c b9
       -0.08651967 -0.006759099 0.017205391 -0.00026795993
0001f0 28 11 55 bd d5 35 b0 bd bd 29 68 3c 68 03 0c 3e
       -0.052018315 -0.08604018 0.014170107 0.13673174
000200 fa c9 a4 3d 77 14 dc bb 7a 68 82 bd c0 22 8f 3d
       0.080463365 -0.006716307 -0.063675836 0.0698905
000210 0b 46 04 be f0 ba 8f bd 8a 1a 0b 3e 04 ef 43 3d
       -0.12917344 -0.070180774 0.13584343 0.047835365
000220 65 17 df bd 39 79 1e 3d a4 fb 9c 3d af da 50 be
       -0.10893134 0.038689826 0.07665184 -0.20395921
000230 04 6c e2 3c 59 9a 06 be a1 4e e9 3c 18 95 85 bd
       0.027639396 -0.13144816 0.028479876 -0.06522578
000240 57 f7 7f 3d 7a 8e 77 bd e2 83 b2 3d 52 1d 57 3c
       0.06249174 -0.06043861 0.08716561 0.013129549
000250 6a 44 e5 3d 18 bc d1 bd 73 94 1b 3a 29 e0 0e be
       0.111946896 -0.10240954 0.00059349014 -0.13952698
000260 c1 2a 0c bd f5 0e a8 bc 48 7e a8 bd be ba e2 bc
       -0.03422046 -0.020514945 -0.08227211 -0.027676936
000270 a2 9c b5 bd 0a 0e 85 3d a0 99 f9 bd 5c 50 0b be
       -0.08867766 0.06496818 -0.12187505 -0.13604873
000280 00 cb 0c be 0b 97 dc 3d a7 cb aa bb 5d 5d a6 bd
       -0.13749313 0.10770997 -0.0052122655 -0.081232764
000290 b9 36 5d 3d 36 73 98 3d 22 0a 42 3d 16 7c a0 bd
       0.054007266 0.0744385 0.047372945 -0.078361675
0002a0 eb 9e 98 3d 70 d0 ca bd dd a6 02 be 52 2a f6 bd
       0.07452186 -0.099030375 -0.12758966 -0.12019791
0002b0 5f 81 c1 3c 79 9e 5a 3d 0a 40 78 3d 71 05 b0 3d
       0.02362126 0.053373788 0.060607947 0.08594788
0002c0 f8 33 b1 bd a1 cd 10 3d 7c 9e d9 3b df 1b 3d 3d
       -0.086524904 0.035352353 0.0066412073 0.046169158
0002d0 6c 28 cc bd f8 c3 d4 bb 04 19 e3 3d a3 fe 37 3d
       -0.09968647 -0.006493088 0.11088756 0.044920575
0002e0 72 84 0a be df ab f5 3d 78 23 2c bd c1 cd d1 bd
       -0.13527086 0.119956724 -0.042026013 -0.102443226
0002f0 43 8a db 3d 84 2a 75 bc 60 69 90 3d 78 fb 97 bc
       0.10719731 -0.01496375 0.07051349 -0.018552527
000300 ac cc ef bc 84 57 c8 3d b8 bb a2 bc f4 c3 c4 3d
       -0.0292724 0.09782317 -0.019864902 0.096076876
000310 37 8d 06 bd 52 34 62 ba 9f b9 06 be e0 33 59 bd
       -0.032849517 -0.0008629012 -0.13156746 -0.053027987
000320 6c 3f 2e bc e0 0d b1 bd fe 5b 85 3c 76 13 44 3d
       -0.010635238 -0.086452246 0.016279217 0.047870122
000330 1f 1d 65 bd 4e ce e8 bd 8e d3 ed bd 62 6d 58 3d
       -0.055935975 -0.113674745 -0.116126165 0.05283869
000340 09 a2 92 3c 66 57 f5 3c b2 dc b9 3c 29 4f 46 3d
       0.01789953 0.029948901 0.022688244 0.048415337
000350 2b c5 f8 3c c2 d2 ea bc 70 bf 10 3e 33 66 9d bc
       0.030367455 -0.02866495 0.14135528 -0.019213771
000360 84 ba 61 3c 75 89 fc bc 3a 82 01 be a2 bf ac 3d
       0.013777379 -0.030827263 -0.12647334 0.084349886
000370 a1 c6 ef 3d 1c e9 13 bc cd 29 20 be f5 03 e9 bd
       0.11707807 -0.009027746 -0.15640946 -0.11377708
000380 1e 03 04 3d 1f f1 48 3e 38 01 c8 bd 11 f4 eb bd
       0.032229535 0.1962323 -0.097658575 -0.11521161
000390 32 be a0 3d dd 79 8e bd 3b 97 a4 3d 36 b1 55 3d
       0.07848777 -0.06956837 0.080366574 0.052170955
0003a0 19 b3 69 3d 30 6f d3 ba b9 73 f9 3c e7 b9 1b bd
       0.057055566 -0.0016131159 0.030450689 -0.038019087
0003b0 28 f5 89 bc 70 8d 9d bd ba c1 be bc eb d6 58 bd
       -0.016840532 -0.07692993 -0.023285735 -0.052939337
0003c0 9f 71 9f 3d b5 b9 bd bc e0 42 fc 3d 5b 46 b1 bd
       0.077853434 -0.023159841 0.12317443 -0.08655997
0003d0 86 16 c9 3d 57 26 a3 bd 03 09 60 3d 56 31 8d 3c
       0.09818749 -0.07966297 0.054696094 0.01723544
0003e0 bb 47 41 be d9 18 da bc 6d 43 0b bd 3a 55 a9 3c
       -0.18875019 -0.026623176 -0.03399985 0.020670522
0003f0 4d fa 0d bc 2b 28 50 3d f0 4b 19 3b 0b 9d f7 bc
       -0.008665633 0.050819557 0.002339121 -0.030226251

network_body._body_endoder.seq_layers.2.bias f4 [128]
000000 00 00 00 00 00 00 00 00 00 00 00 00 00 00 00 00
       0.0 0.0 0.0 0.0
000010 00 00 00 00 00 00 00 00 00 00 00 00 00 00 00 00
       0.0 0.0 0.0 0.0
000020 00 00 00 00 00 00 00 00 00 00 00 00 00 00 00 00
       0.0 0.0 0.0 0.0
000030 00 00 00 00 00 00 00 00 00 00 00 00 00 00 00 00
       0.0 0.0 0.0 0.0
000040 00 00 00 00 00 00 00 00 00 00 00 00 00 00 00 00
       0.0 0.0 0.0 0.0
000050 00 00 00 00 00 00 00 00 00 00 00 00 00 00 00 00
       0.0 0.0 0.0 0.0
000060 00 00 00 00 00 00 00 00 00 00 00 00 00 00 00 00
       0.0 0.0 0.0 0.0
000070 00 00 00 00 00 00 00 00 00 00 00 00 00 00 00 00
       0.0 0.0 0.0 0.0
000080 00 00 00 00 00 00 00 00 00 00 00 00 00 00 00 00
       0.0 0.0 0.0 0.0
000090 00 00 00 00 00 00 00 00 00 00 00 00 00 00 00 00
       0.0 0.0 0.0 0.0
0000a0 00 00 00 00 00 00 00 00 00 00 00 00 00 00 00 00
       0.0 0.0 0.0 0.0
0000b0 00 00 00 00 00 00 00 00 00 00 00 00 00 00 00 00
       0.0 0.0 0.0 0.0
0000c0 00 00 00 00 00 00 00 00 00 00 00 00 00 00 00 00
       0.0 0.0 0.0 0.0
0000d0 00 00 00 00 00 00 00 00 00 00 00 00 00 00 00 00
       0.0 0.0 0.0 0.0
0000e0 00 00 00 00 00 00 00 00 00 00 00 00 00 00 00 00
       0.0 0.0 0.0 0.0
0000f0 00 00 00 00 00 00 00 00 00 00 00 00 00 00 00 00
       0.0 0.0 0.0 0.0
000100 00 00 00 00 00 00 00 00 00 00 00 00 00 00 00 00
       0.0 0.0 0.0 0.0
000110 00 00 00 00 00 00 00 00 00 00 00 00 00 00 00 00
       0.0 0.0 0.0 0.0
000120 00 00 00 00 00 00 00 00 00 00 00 00 00 00 00 00
       0.0 0.0 0.0 0.0
000130 00 00 00 00 00 00 00 00 00 00 00 00 00 00 00 00
       0.0 0.0 0.0 0.0
000140 00 00 00 00 00 00 00 00 00 00 00 00 00 00 00 00
       0.0 0.0 0.0 0.0
000150 00 00 00 00 00 00 00 00 00 00 00 00 00 00 00 00
       0.0 0.0 0.0 0.0
000160 00 00 00 00 00 00 00 00 00 00 00 00 00 00 00 00
       0.0 0.0 0.0 0.0
000170 00 00 00 00 00 00 00 00 00 00 00 00 00 00 00 00
       0.0 0.0 0.0 0.0
000180 00 00 00 00 00 00 00 00 00 00 00 00 00 00 00 00
       0.0 0.0 0.0 0.0
000190 00 00 00 00 00 00 00 00 00 00 00 00 00 00 00 00
       0.0 0.0 0.0 0.0
0001a0 00 00 00 00 00 00 00 00 00 00 00 00 00 00 00 00
       0.0 0.0 0.0 0.0
0001b0 00 00 00 00 00 00 00 00 00 00 00 00 00 00 00 00
       0.0 0.0 0.0 0.0
0001c0 00 00 00 00 00 00 00 00 00 00 00 00 00 00 00 00
       0.0 0.0 0.0 0.0
0001d0 00 00 00 00 00 00 00 00 00 00 00 00 00 00 00 00
       0.0 0.0 0.0 0.0
0001e0 00 00 00 00 00 00 00 00 00 00 00 00 00 00 00 00
       0.0 0.0 0.0 0.0
0001f0 00 00 00 00 00 00 00 00 00 00 00 00 00 00 00 00
       0.0 0.0 0.0 0.0

action_model._continuous_distribution.log_sigma f4 [1, 5]
000000 00 00 00 00 00 00 00 00 00 00 00 00 00 00 00 00
       0.0 0.0 0.0 0.0
000010 00 00 00 00
       0.0

action_model._continuous_distribution.mu.weight f4 [5, 128]
000000 4b 6c 30 3c 02 16 e5 bc 69 fe 39 3c 17 74 b8 ba
       0.010768007 -0.027964596 0.01135216 -0.0014072683
000010 c3 5c 79 3c ad 43 6b bb 2b 83 e8 bc 40 84 af bc
       0.01521987 -0.0035898492 -0.028382858 -0.021425366
000020 3a c2 15 bc af 4d 52 bc 9b d1 e0 3c c6 03 83 3c
       -0.0091405455 -0.012835904 0.027443698 0.01599301
000030 cf 0e c3 3c b7 8e d5 3b 72 65 2a bd 4e 23 29 bc
       0.023810772 0.006517257 -0.041600652 -0.010323359
000040 5b 76 39 3c a0 7a 71 3c d2 91 a8 bc fc 90 15 bd
       0.011319722 0.014738709 -0.020577345 -0.03651522
000050 8b b2 5c bc eb ae a5 3c 25 37 0c 3c 5b 4d bf 3b
       -0.013470302 0.020225009 0.008558069 0.005838079
000060 4b f0 a0 3c 28 6e 6f ba 3e c9 43 3b 5b b4 c4 ba
       0.01964583 -0.0009133541 0.0029874588 -0.0015007363
000070 a1 42 0f bb 47 a9 21 3c 1a a5 74 ba 81 aa 04 bb
       -0.0021859782 0.009867019 -0.00093324634 -0.002024323
000080 0d 0a da bc 09 a9 0b 3c b3 7c 8f 3c 73 72 f8 3c
       -0.02661612 0.008524188 0.017515516 0.030328011
000090 3b ec 0e 3c 31 1a a4 3a c5 11 a2 3c 9d 3c 35 bc
       0.008723314 0.0012520013 0.019783864 -0.011061815
0000a0 54 2a 22 bd 23 17 28 bc 76 3c 81 bc 36 53 9d bc
       -0.03959115 -0.0102594225 -0.0157759 -0.019204717
0000b0 37 41 10 bc 15 08 6d 3c 93 39 b4 bc 6b 52 2c bb
       -0.008804611 0.014467259 -0.02200011 -0.0026294242
0000c0 1c 6e bc bc b5 6d cb bb 5a 24 4a 3c 22 8c 3f 3b
       -0.023001723 -0.0062081465 0.012337768 0.0029227813
0000d0 db f7 13 3b 2a ce c3 3c e3 54 ae bc fd aa 1e bd
       0.0022578153 0.023902018 -0.021280712 -0.038737286
0000e0 f3 bb bc 3b 4b e4 67 bc 56 59 0f bd 85 f0 e9 3b
       0.00575971 -0.01415355 -0.034997307 0.007139268
0000f0 7e 17 b1 bb ba 6e 22 3c 3a 66 d0 bb 44 85 43 bc
       -0.005404412 0.009914095 -0.0063598426 -0.0119336285
000100 4f 7c ec bc e1 29 30 3b bb 8f 64 3c 09 00 b1 3c
       -0.028867869 0.002688043 0.013950284 0.021606462
000110 b6 12 28 3c d7 b3 da 3c 94 c5 a6 3b 53 d9 41 bb
       0.010258367 0.026697082 0.005089471 -0.0029578998
000120 85 51 a8 ba cb 58 1c bd 63 9b b8 bb ed 97 82 bc
       -0.0012841678 -0.038170617 -0.005633758 -0.015941584
000130 4a 4b 53 3b f7 5f 62 bc 13 59 68 3c 7a 67 e7 bc
       0.003224092 -0.013816825 0.014181393 -0.028247584
000140 8b 12 5f 3c f8 a4 1a 3c d7 80 80 bc 80 a0 f6 3c
       0.013615261 0.009438746 -0.015686436 0.03010583
000150 d5 d5 d8 bc 18 ee f9 3b 89 10 84 bc b9 9a 16 3d
       -0.02646915 0.00762726 -0.016121166 0.03676865
000160 10 0f 60 bc 26 85 1c 3c f3 c0 ab bc 57 ac 69 b7
       -0.013675466 0.009553229 -0.020966029 -1.3928008e-05
000170 f3 99 5e bc 96 ac 39 3c 8b 9c c2 bc cc 44 1e bc
       -0.013586509 0.011332652 -0.023756286 -0.009659957
000180 07 6b 16 3c 4d d5 24 bc 82 9d 65 bb cd 0f 88 bc
       0.009180791 -0.0100606205 -0.003503651 -0.016609097
000190 97 cf 3a bc 38 21 b6 3c f3 45 30 39 33 65 e7 39
       -0.011402032 0.022232637 0.00016810726 0.00044135153
0001a0 00 d7 f0 bb 83 6f 65 3c 18 da dc 3a a2 0f de 3b
       -0.0073498487 0.014003637 0.0016849665 0.006776766
0001b0 85 18 79 3c 8f 86 d0 bb 46 de 1d bc ef ff f5 bb
       0.0152036 -0.006363697 -0.009635514 -0.0075073163
0001c0 22 e5 64 bc 72 d4 dc 3a 37 54 f3 3b bb a4 1a bc
       -0.013970645 0.0016847982 0.0074258107 -0.009438689
0001d0 a0 cb 9a bc 08 19 5a bc ae 6e 1c bd 56 86 05 3d
       -0.018895924 -0.013311632 -0.03819149 0.032598816
0001e0 75 46 09 bc 43 0d ec 3c 03 7e c9 3b 68 67 74 3b
       -0.008378615 0.028814917 0.006149055 0.003729308
0001f0 cb 8d 91 3c aa e8 c2 3c e3 b1 cb 39 af f0 f5 3a
       0.017767807 0.023792583 0.00038851713 0.0018763746
000200 d2 f1 ac 3c 95 5d 9b bc 0c bb 34 3c 4d 74 c2 3c
       0.021111403 -0.018965522 0.011030924 0.023737097
000210 ef 8f bb bc 58 1e 30 bb bd 9f 56 3c 0f 41 c6 bc
       -0.022895781 -0.0026873555 0.013099608 -0.024200944
000220 7f 9b a1 bc 4a 70 84 3b 4d 82 27 3c 83 84 06 bd
       -0.019727467 0.004041706 0.010223937 -0.032841217
000230 a3 79 d8 3c 68 08 b5 3b fb ec 2b ba c3 ed 45 bc
       0.026425188 0.0055246837 -0.0006558445 -0.012080613
000240 37 32 a5 bb 70 0c 7c 3c 61 11 ae bc d8 6f 47 bb
       -0.0050413865 0.015383825 -0.021248521 -0.0030431654
000250 77 61 15 bc 58 4f a9 3b 8b a0 7e 3c 17 db 81 bc
       -0.009117476 0.005166929 0.015541206 -0.01585154
000260 e5 a5 c3 3c 75 ce 4b bc 1b 97 89 3b e9 62 aa bc
       0.023882816 -0.01243936 0.0041989214 -0.020799117
000270 70 a1 f5 bc 9b 64 0c 3c d1 a7 b7 3b 32 48 bb 3a
       -0.029984206 0.008568908 0.005604722 0.0014288484
000280 3f 2e 5c 3c ba 9b 0b 3c d0 90 75 3a 19 3d a8 3b
       0.01343876 0.008521015 0.0009367587 0.0051342365
000290 47 87 e5 bc cc 78 93 3c 38 78 6f 3b 20 4a c0 3a
       -0.028018607 0.018001936 0.0036540162 0.0014670528
0002a0 05 25 ff 3a b9 1b 3a bc 51 70 93 bc f0 da ac 3c
       0.0019465989 -0.011359149 -0.017997893 0.021100491
0002b0 3f 08 72 3c 59 10 0c bc 71 ba ad 39 bb a6 a3 bc
       0.014772474 -0.008548819 0.0003313604 -0.019976964
0002c0 7d c8 9e bb 95 56 67 3c 7b fc 4c bc e8 58 3e bb
       -0.0048456774 0.014119764 -0.012511368 -0.0029044691
0002d0 43 7a d8 bb d7 c5 a3 bb 33 28 64 3c f2 a6 71 bc
       -0.0066063716 -0.0049979496 0.0139256 -0.0147492755
0002e0 95 3e 8e bc c6 82 9e 3c 82 ff de bb 5f 59 aa 3c
       -0.017363826 0.019349467 -0.0068053612 0.020794569
0002f0 92 e5 12 bd 7b 29 99 3b c9 05 21 bc bf fb 7b 3c
       -0.035863467 0.0046741343 -0.009828039 0.015379845
000300 07 d5 52 3c 43 d7 d6 3a d7 a7 9a bb 85 35 4f 3c
       0.0128681725 0.0016391057 -0.004719715 0.012647037
000310 a7 15 25 bc 5b 3f 07 3c 27 2e 95 3b 96 8b 38 3c
       -0.010075963 0.008254851 0.004552621 0.011263749
000320 60 fa 8e bc f7 f3 d7 bb df c5 24 3c 6d 49 7d bc
       -0.017453372 -0.006590362 0.010056942 -0.015459401
000330 a8 31 04 bc 28 29 37 3c 6d 96 d0 3b c8 d9 5f 3c
       -0.00806848 0.011179246 0.0063655884 0.013662763
000340 77 59 96 bc 82 9d d5 bb f1 af 24 3c 0c c3 9d 3b
       -0.018353207 -0.0065190205 0.010051713 0.004814511
000350 32 be 60 3c 0b c0 08 bc ee 4f c2 bc 7a 3c 1b 3b
       0.013717221 -0.008346568 -0.023719754 0.002368717
000360 2f d5 b1 bc 24 7f c0 bc bb e7 87 ba 68 67 92 3a
       -0.0217081 -0.023498125 -0.0010368744 0.0011169733
000370 a7 5e 25 bd bb 18 bc 3a fd 52 e7 3a be e4 05 3c
       -0.04037347 0.0014350632 0.0017648634 0.008172212
000380 ca de 79 3b 81 8b 94 3c 96 df a6 3c 0a 87 da 3a
       0.0038127177 0.018132927 0.020370286 0.0016672325
000390 bc eb a5 bc 73 5a 69 bc 5f ee 0c 3c df 02 dd 3b
       -0.020254008 -0.014242756 0.008601754 0.006744727
0003a0 3a 77 03 3d b0 0a 98 bb fb 71 e4 bb ef 05 8b bb
       0.032096125 -0.004639946 -0.0069715953 -0.0042426507
0003b0 33 40 97 3b 75 de c4 3c ef 75 9a bc cb fb 14 3d
       0.0046158074 0.024031857 -0.018855063 0.03637294
0003c0 0f 6f 77 bb eb 15 ca 3b 0c f9 94 ba 21 5d 8e 3d
       -0.0037755405 0.0061671636 -0.0011365726 0.06951357
0003d0 1c 7f ac bb aa 67 45 3c 77 cb 2d 3b c6 08 16 bd
       -0.005264176 0.012048641 0.002651898 -0.03662946
0003e0 9d da f8 3b ec 74 26 3d 98 8b e1 bb 5e 40 8e bb
       0.00759442 0.04063885 -0.006883096 -0.0043411693
0003f0 df 4e 89 bc 48 a1 59 bb e3 db a4 3c 0b 16 a7 3c
       -0.016761241 -0.0033207703 0.020124381 0.020396253

action_model._continuous_distribution.mu.bias f4 [5]
000000 00 00 00 00 00 00 00 00 00 00 00 00 00 00 00 00
       0.0 0.0 0.0 0.0
000010 00 00 00 00
       0.0

action_model._discrete_distribution.branches.0.weight f4 [1, 128]
000000 93 b2 4e 3b 6d f0 af bb 1f 95 2d 3c 73 30 2e bb
       0.0031539544 -0.005369237 0.010594635 -0.002657917
000010 c7 b3 3c bb 94 c2 8e 3b 44 6d 05 3b f0 71 c2 bb
       -0.002879368 0.0043566916 0.0020359317 -0.0059339926
000020 93 a7 35 bc 88 a6 80 b9 53 52 e7 ba d2 b6 9d bc
       -0.011087316 -0.00024538138 -0.0017648436 -0.019252215
000030 de b0 9f bb f2 c8 85 bb 10 bd 6a bb 57 e4 25 3c
       -0.004873379 -0.0040827924 -0.0035818256 0.010125241
000040 bb 3c c5 bb 84 9b b2 bc cd b5 45 bb 4b 88 14 3a
       -0.0060192025 -0.021802671 -0.0030168176 0.0005666061
000050 50 58 91 bb 9c 6e 19 bc 43 08 4c bb 3f 71 e0 bb
       -0.0044355765 -0.00936475 -0.0031132854 -0.0068494375
000060 d2 1b 80 3c 37 4c f1 bb 8f 3d 9d 39 4e 33 2d bb
       0.015638266 -0.007363822 0.00029991238 -0.0026428285
000070 47 00 ac 3c fc 88 9f 38 dc e2 9c 3c 37 d5 c5 3b
       0.020996226 7.607226e-05 0.019151144 0.00603738
000080 3d b9 ce 3c c5 b3 35 3b a1 23 cb 3a 2a f2 f5 ba
       0.025234813 0.002772556 0.0015498289 -0.0018764187
000090 4f c8 08 3a c7 0c dc bb 3f 8f 2c bc ab 7b 53 bb
       0.00052178366 -0.0067153904 -0.010532199 -0.0032269757
0000a0 5b 65 51 3b 7c 3d 19 bb 6e ee 2a 3c 38 ab 7a 3b
       0.0031951282 -0.0023382595 0.010432823 0.0038249027
0000b0 95 7c ef 3b df 12 13 3c 43 99 05 3a 23 a6 a7 3c
       0.0073085525 0.008976667 0.0005096385 0.020464962
0000c0 7c d9 1a bb a3 08 a0 3b 9f 89 1c 3c 8f 37 2a bc
       -0.0023628166 0.004883842 0.009554296 -0.010389223
0000d0 05 b4 c5 3b bf 26 5a 3c fe 95 46 bc 5b f5 e6 ba
       0.006033423 0.013314902 -0.012120722 -0.0017620729
0000e0 e2 50 a2 3c 85 d1 50 3b a3 78 bd bb a3 d5 46 bb
       0.019813959 0.0031863165 -0.0057822033 -0.003033974
0000f0 b1 9e 97 3a 87 d6 18 3c 9b 66 97 3b d2 d4 16 3c
       0.001156768 0.009328491 0.004620386 0.009206014
000100 a8 1f 62 bc 80 91 29 bc ef c9 96 bb b7 ec a6 3b
       -0.013801493 -0.010349631 -0.004601709 0.0050941366
000110 1b 19 6f 3c df 6d e9 3b eb ab 72 3c 9a d1 bb 3a
       0.014593388 0.0071236934 0.014811496 0.0014329434
000120 50 d9 8a 3b e0 b3 e6 3b 55 07 63 3b 67 2f 13 3c
       0.0042373314 0.0070404857 0.0034641821 0.00898347
000130 68 d9 09 bb 6b a9 30 3c 13 69 8b ba 97 a6 37 3b
       -0.0021034125 0.01078258 -0.0010636173 0.002802288
000140 1d 89 ca 3b ad ea e4 bb 6b 0c 01 bc 87 d9 a4 3b
       0.006180896 -0.0069859833 -0.007876496 0.005030814
000150 e7 0a 66 3b ab 53 25 3c db ee 01 3a af ff f1 3a
       0.0035101713 0.010090749 0.0004956552 0.001846304
000160 af c3 25 3c 01 05 3e 3b 97 ae 8d bb b3 a4 56 bc
       0.010117455 0.0028994682 -0.0043237912 -0.013100791
000170 20 9f 58 bb a2 bc 13 3c cd b2 97 bb b2 7c 5e 3b
       -0.003305383 0.009017142 -0.004629469 0.0033948836
000180 80 72 43 bb ff 3c 06 bc 8a cc 45 bc 05 65 8f 3b
       -0.0029822886 -0.008193254 -0.012072692 0.004376056
000190 12 58 d3 3b 37 19 45 3c 3d 97 f2 bb c2 14 71 3c
       0.006449708 0.0120299375 -0.007403283 0.014714422
0001a0 ef 48 69 bc f0 fd 5c 3c 05 c8 c2 3b a0 0f 54 bb
       -0.01423858 0.013488278 0.0059442543 -0.0032357946
0001b0 3e 0b 96 bb 65 17 4c 3c d3 48 f9 3b bf 3d 9e 3a
       -0.004578977 0.01245675 0.0076075583 0.0012072845
0001c0 56 27 43 3c e2 36 8a 3b 2d 93 4e 3b a3 d9 28 38
       0.011911234 0.0042179683 0.003152083 4.025701e-05
0001d0 87 1d 00 3c 25 ee 36 3a 71 39 89 3c 23 70 0c bc
       0.00781954 0.00069782353 0.016751023 -0.008571657
0001e0 4b 64 af 3b 42 62 36 ba 6b a2 08 3c 15 f8 ea ba
       0.005352532 -0.00069573906 0.008339505 -0.0017926717
0001f0 23 d7 1f bc 92 6b fa 3b 17 cd 88 3b 53 ff 5a bc
       -0.009755882 0.007642218 0.0041748392 -0.013366538

network_body._body_endoder.seq_layers.0.weight f4 [128, 8]
000000 d9 04 a6 3e 41 e6 86 3e 39 f7 01 bd 05 cd 1a 3f
       0.32425573 0.26347545 -0.03172991 0.60469085
000010 34 de 84 3d 32 9e 11 3d 78 fe 12 be 0b ba bc 3e
       0.064876944 0.035551257 -0.14354885 0.3686069
000020 09 6c 66 be 1a c2 e2 3d 9a 07 bb be 8d db 26 3e
       -0.2250215 0.11072178 -0.36529237 0.1629469
000030 68 ab ce be e1 19 3c 3d 70 15 d7 3e a9 43 dc 3e
       -0.40365148 0.045923118 0.42008543 0.4302037
000040 f0 87 b7 3e ee 95 75 be 5c 1f f3 bd f7 ae 08 bf
       0.358459 -0.23982975 -0.11871216 -0.53391975
000050 3c bf 63 3e 73 52 91 3e 41 bd 89 3d 4d bd 03 be
       0.22240919 0.28383216 0.067255504 -0.12865181
000060 fd 8c 9f bd 5d 94 d9 be 31 bd c0 3d 5a 0c 8f be
       -0.07790563 -0.42496005 0.094110854 -0.2793911
000070 8b 63 0a bc 2b a0 7e bf f1 bf a2 3c 77 3e 2d 3e
       -0.008446584 -0.99463147 0.019866915 0.1691836
000080 c0 03 cc be 65 a1 9f be 42 21 8b 3d 6a da 04 3e
       -0.3984661 -0.31177822 0.06793453 0.12973943
000090 c9 97 29 be 8d ff 22 bf 8a c2 3e bf ba fb 3d 3e
       -0.16561808 -0.6367119 -0.74515593 0.18553057
0000a0 89 f0 2f 3f 77 40 ab 3e d5 0b 03 be 4f e5 79 3e
       0.687264 0.3344762 -0.12797482 0.2440388
0000b0 02 6d 5a be e2 a0 84 3e d6 e4 68 3f 93 c5 32 be
       -0.21330646 0.25903994 0.90974176 -0.17458181
0000c0 55 63 80 be 44 ef 02 bf 3f 9b 34 3f 36 66 fd be
       -0.25075784 -0.5114634 0.70549387 -0.49492043
0000d0 3e 1f ec bd 52 31 79 3e a1 59 a1 be 7b d6 75 3d
       -0.115293965 0.2433522 -0.31513694 0.060018998
0000e0 ae dd 89 be 72 55 5f 3d f0 8b 15 3d 5d 6e 1e 3f
       -0.2692694 0.054524846 0.036510408 0.6188715
0000f0 e4 a5 80 3e 46 d9 15 3c 7a b4 b0 be b5 17 bd 3e
       0.25126565 0.00914604 -0.34512693 0.3693215
000100 25 7c e6 be 99 2c 0c be 13 91 df 3e bf e1 17 3e
       -0.4501659 -0.13688888 0.4366537 0.14832209
000110 2c 81 c1 3d 7f 3d e0 be 9b 8f f7 be 13 12 86 be
       0.09448466 -0.43796918 -0.4835175 -0.26185665
000120 3a ef 1e 3f 79 b2 be 3e 3e eb 9b 3e 58 47 d8 bb
       0.6208378 0.3724554 0.30452913 -0.0066003017
000130 f3 04 f7 3e f7 47 76 3e b4 d8 09 bd f7 71 98 3e
       0.48245963 0.2405089 -0.03365393 0.29774448
000140 7e ab 50 bd 46 6e a1 3a 6c e6 95 3e 9a 01 b7 3d
       -0.050944798 0.0012316189 0.2927736 0.08935852
000150 11 72 d4 bd 07 b9 d1 3e 90 f5 49 bf 35 2c 6c 3e
       -0.10373319 0.40961477 -0.78890324 0.23063739
000160 4d 2a 69 3e e4 e4 26 be 1b 22 40 3e c6 a7 93 3f
       0.22770043 -0.16298252 0.1876301 1.1535575
000170 d7 3e d0 bc d7 11 ec 3e 1d 9f 86 bd cc d3 6c 3e
       -0.02542059 0.4610736 -0.06573317 0.23127669
000180 c0 6d 08 bd 03 d5 50 bd af 6a 90 be 0b 2e 5a be
       -0.03330779 -0.050984394 -0.28206393 -0.21306626
000190 04 75 b8 bc fb a7 88 bf 33 77 ae 3e 1a a5 99 3e
       -0.022516735 -1.0676264 0.34075317 0.30008775
0001a0 0a 6a e2 3e 0a db b3 be f5 cf 3c be bb 40 ad 3c
       0.44221526 -0.3512805 -0.18438704 0.02114903
0001b0 fd 25 b5 3d 3f 6b 97 bd 04 f8 c3 be 7d de a2 3e
       0.08845136 -0.073935024 -0.38275158 0.3181037
0001c0 0f 09 25 bf fc c6 51 3e 67 c1 23 3e 3c c5 95 3e
       -0.6446695 0.20486063 0.15991746 0.2925204
0001d0 cf e8 c8 bd 86 82 55 3c b5 8d 1a 3e e6 bd fb 3d
       -0.0981003 0.0130316075 0.1509312 0.1229208
0001e0 be 5c 67 be 92 11 49 3d 18 7a 9a 3e 7b df bc bd
       -0.22593972 0.049089022 0.30171275 -0.09222313
0001f0 a5 bf 34 be 5b e9 21 3e aa c3 f4 bc 30 0b f4 be
       -0.17651232 0.15811674 -0.029878456 -0.47664785
000200 24 42 82 3e 25 89 80 be 18 2a dc 3e ff d3 95 3e
       0.25441086 -0.25104633 0.43000865 0.29263303
000210 8a 26 9e bb 0e 7e ce be 90 f0 8a be d1 09 73 3d
       -0.0048263716 -0.40330547 -0.2713666 0.059335534
000220 2e 71 99 be 6b 8a 62 3e 4f c0 d3 3d 1b 24 02 3d
       -0.29969162 0.22123115 0.10339414 0.031772714
000230 ba 39 fb 3d a0 b9 e0 3d e2 de 18 bc 2c 14 67 bd
       0.1226687 0.10972905 -0.009330483 -0.05641572
000240 4a 21 f2 bd 83 ef 4e bd 78 8c 93 be e4 1a fd bd
       -0.11822756 -0.050521385 -0.28818107 -0.123586446
000250 37 65 81 3d 82 11 bb be 9b 95 8a be 61 d4 9a 3e
       0.06318133 -0.36536795 -0.27067265 0.30240157
000260 bb 00 4b 3e 4f b3 4e be d4 d2 9e 3d 30 4b bb 3c
       0.19824497 -0.20185588 0.07755056 0.022863
000270 da 70 e0 3e 65 32 86 3e 26 d5 19 3e 63 a1 b5 3e
       0.438361 0.26210323 0.15022716 0.3547469
000280 7a 8e 4a 3d f5 3f 6f be 7b 95 18 3f 43 5f ba bd
       0.049452282 -0.23364241 0.5960309 -0.09100201
000290 db c3 9f be 11 8f 45 be d8 8c 9c be 3c 22 9e 3e
       -0.31204113 -0.19292857 -0.30576205 0.30885494
0002a0 81 a9 91 3e 45 8a 66 be ba 81 b1 bc 1a b7 29 3e
       0.28449634 -0.22513683 -0.021668304 0.16573754
0002b0 fd 33 47 3d ee 75 dc 3e 73 a9 d0 3c 06 2d be 3e
       0.048633564 0.43058723 0.025471425 0.37143725
0002c0 db b9 06 bf 24 31 25 3d 74 b7 c7 3e 42 70 35 bf
       -0.5262734 0.040330067 0.3900715 -0.70874417
0002d0 08 69 31 3e 6a c4 ef 3e 12 0d d1 bd b7 f2 0b 3f
       0.17325222 0.4682954 -0.10207571 0.5466723
0002e0 59 ca f2 3d 8f ab c6 bc 22 85 7e be 76 d4 8b 3e
       0.11855001 -0.024251727 -0.24855474 0.27310532
0002f0 e4 4c a9 be bc 25 4a 3d a1 f4 58 bf 5d 50 78 be
       -0.33066475 0.049352393 -0.84748274 -0.24249406
000300 ef 76 3a 3e a5 77 bb 3c 9d 3b 77 3d 0e ce ee be
       0.18209432 0.0228842 0.060359586 -0.46641582
000310 c0 13 20 bf 6a 0c 84 3e 8b 9c b9 3d 36 4c 97 be
       -0.62530136 0.2579072 0.09063061 -0.29550332
000320 64 b4 0f 3f 1f 03 73 3e c5 d6 56 3d 34 f9 89 bd
       0.5613463 0.2373166 0.052450914 -0.06736985
000330 26 b8 ac be 2d 1a cf be f9 b6 c5 be 02 25 40 bf
       -0.33734244 -0.40449658 -0.3861616 -0.7505647
000340 c1 89 12 bf f9 bb 8e be 30 c2 03 3f 9a 06 12 be
       -0.57241446 -0.27877787 0.5146818 -0.14260331
000350 7b c0 fe 3e a5 14 96 be 19 32 3d bf 3e 58 09 3f
       0.49756226 -0.29312626 -0.7390457 0.5365027
000360 bf b2 2a be 12 0c f6 be c8 b5 d9 3e 8c bd eb bc
       -0.16669749 -0.48056084 0.425215 -0.028776906
000370 61 db 1b 3e d2 8c 8c bd b1 46 27 3f 44 de 9e 3d
       0.15220405 -0.06862797 0.6534224 0.077572376
000380 70 69 1a be 56 ed c1 be 0f 1d 82 bf 4b ce 76 bd
       -0.15079284 -0.37876385 -1.0165118 -0.06025533
000390 e1 f0 37 3e 8e 85 31 3d c7 15 0c bf 98 06 55 bd
       0.17962982 0.04334026 -0.5472073 -0.05200824
0003a0 06 e6 c3 bb 9f 4e a5 be 99 c2 70 bc 71 d5 3e be
       -0.0059783487 -0.32286546 -0.014694833 -0.18636109
0003b0 cc ef c9 be a4 d4 f5 3e a6 52 9d 3e ca 5c a7 bb
       -0.39440763 0.48013794 0.30727118 -0.005107497
0003c0 1b d0 28 3f 07 56 2a 3f ab 42 23 3e a8 76 ac be
       0.65942544 0.6653752 0.159434 -0.33684278
0003d0 50 44 9f be bf 97 fa 3e 94 be d9 bd a1 99 1f be
       -0.31106806 0.48943898 -0.10632053 -0.15585949
0003e0 bf b9 02 bf 9e ca a0 3e 62 0b 0a 3e 93 54 52 be
       -0.51064676 0.31404585 0.13480905 -0.20540075
0003f0 0b 4e 66 3d 50 b3 c6 3d 87 ec 34 bf 96 64 84 3e
       0.05622677 0.0970217 -0.7067341 0.2585799

network_body._body_endoder.seq_layers.0.bias f4 [128]
000000 00 00 00 00 00 00 00 00 00 00 00 00 00 00 00 00
       0.0 0.0 0.0 0.0
000010 00 00 00 00 00 00 00 00 00 00 00 00 00 00 00 00
       0.0 0.0 0.0 0.0
000020 00 00 00 00 00 00 00 00 00 00 00 00 00 00 00 00
       0.0 0.0 0.0 0.0
000030 00 00 00 00 00 00 00 00 00 00 00 00 00 00 00 00
       0.0 0.0 0.0 0.0
000040 00 00 00 00 00 00 00 00 00 00 00 00 00 00 00 00
       0.0 0.0 0.0 0.0
000050 00 00 00 00 00 00 00 00 00 00 00 00 00 00 00 00
       0.0 0.0 0.0 0.0
000060 00 00 00 00 00 00 00 00 00 00 00 00 00 00 00 00
       0.0 0.0 0.0 0.0
000070 00 00 00 00 00 00 00 00 00 00 00 00 00 00 00 00
       0.0 0.0 0.0 0.0
000080 00 00 00 00 00 00 00 00 00 00 00 00 00 00 00 00
       0.0 0.0 0.0 0.0
000090 00 00 00 00 00 00 00 00 00 00 00 00 00 00 00 00
       0.0 0.0 0.0 0.0
0000a0 00 00 00 00 00 00 00 00 00 00 00 00 00 00 00 00
       0.0 0.0 0.0 0.0
0000b0 00 00 00 00 00 00 00 00 00 00 00 00 00 00 00 00
       0.0 0.0 0.0 0.0
0000c0 00 00 00 00 00 00 00 00 00 00 00 00 00 00 00 00
       0.0 0.0 0.0 0.0
0000d0 00 00 00 00 00 00 00 00 00 00 00 00 00 00 00 00
       0.0 0.0 0.0 0.0
0000e0 00 00 00 00 00 00 00 00 00 00 00 00 00 00 00 00
       0.0 0.0 0.0 0.0
0000f0 00 00 00 00 00 00 00 00 00 00 00 00 00 00 00 00
       0.0 0.0 0.0 0.0
000100 00 00 00 00 00 00 00 00 00 00 00 00 00 00 00 00
       0.0 0.0 0.0 0.0
000110 00 00 00 00 00 00 00 00 00 00 00 00 00 00 00 00
       0.0 0.0 0.0 0.0
000120 00 00 00 00 00 00 00 00 00 00 00 00 00 00 00 00
       0.0 0.0 0.0 0.0
000130 00 00 00 00 00 00 00 00 00 00 00 00 00 00 00 00
       0.0 0.0 0.0 0.0
000140 00 00 00 00 00 00 00 00 00 00 00 00 00 00 00 00
       0.0 0.0 0.0 0.0
000150 00 00 00 00 00 00 00 00 00 00 00 00 00 00 00 00
       0.0 0.0 0.0 0.0
000160 00 00 00 00 00 00 00 00 00 00 00 00 00 00 00 00
       0.0 0.0 0.0 0.0
000170 00 00 00 00 00 00 00 00 00 00 00 00 00 00 00 00
       0.0 0.0 0.0 0.0
000180 00 00 00 00 00 00 00 00 00 00 00 00 00 00 00 00
       0.0 0.0 0.0 0.0
000190 00 00 00 00 00 00 00 00 00 00 00 00 00 00 00 00
       0.0 0.0 0.0 0.0
0001a0 00 00 00 00 00 00 00 00 00 00 00 00 00 00 00 00
       0.0 0.0 0.0 0.0
0001b0 00 00 00 00 00 00 00 00 00 00 00 00 00 00 00 00
       0.0 0.0 0.0 0.0
0001c0 00 00 00 00 00 00 00 00 00 00 00 00 00 00 00 00
       0.0 0.0 0.0 0.0
0001d0 00 00 00 00 00 00 00 00 00 00 00 00 00 00 00 00
       0.0 0.0 0.0 0.0
0001e0 00 00 00 00 00 00 00 00 00 00 00 00 00 00 00 00
       0.0 0.0 0.0 0.0
0001f0 00 00 00 00 00 00 00 00 00 00 00 00 00 00 00 00
       0.0 0.0 0.0 0.0

network_body._body_endoder.seq_layers.2.weight f4 [128, 128]
000000 d8 86 87 bd 06 ca 15 3d 9d 11 0b 3e ee 6c 84 3e
       -0.06617516 0.036569618 0.13580938 0.25864357
000010 2a 3f c5 3d 06 cd d1 bd 8b ec 2d 3e f5 96 01 be
       0.09631188 -0.10244183 0.16984765 -0.12655242
000020 ad a4 ed bc 6f b9 e5 3c c1 4b 15 be 07 bf 01 be
       -0.029009188 0.028042523 -0.14579679 -0.12670527
000030 93 88 66 bd 48 05 91 bd e4 12 2d 3d 8f a2 88 bd
       -0.05628259 -0.070810854 0.042254344 -0.066716306
000040 8a 15 2b 3e 0d 25 db bc 94 bb 54 3d 1d 13 cc bc
       0.16707435 -0.026751066 0.0519367 -0.024911458
000050 d0 9f ae bd 55 b5 6b 3d e0 09 a0 3d e8 5d c4 bd
       -0.085265756 0.05754598 0.078143835 -0.09588224
000060 d1 0b 23 3e 57 16 a4 3d 80 42 8a bd 02 72 d4 bb
       0.15922476 0.080120735 -0.06750965 -0.0064833174
000070 c7 c1 e8 3d a9 37 5b bc cb 5a 0d bc 71 e2 25 bc
       0.11365085 -0.01337997 -0.008627604 -0.010124789
000080 e3 eb 34 bc 67 4e 1b 3d 98 07 8d 3d b1 42 c3 bc
       -0.011042568 0.037916567 0.06886214 -0.023835512
000090 83 7f ef bd 61 bf 78 bd 22 48 24 bc f7 3e eb 3d
       -0.11694243 -0.06072939 -0.010026963 0.11486619
0000a0 4b 54 18 bd 2e e9 c5 bb ff 60 fe 3c e5 85 58 3d
       -0.037189763 -0.00603976 0.03105211 0.052862067
0000b0 05 13 a0 bc ab ba 2d 3e 76 2c c1 bc ae 14 a0 bc
       -0.01954032 0.1696574 -0.023580771 -0.01954111
0000c0 0b d9 ba bc 86 a2 84 3b 52 74 df 3d 20 0c 33 bd
       -0.022808572 0.0040476946 0.10910858 -0.043712735
0000d0 ca 32 9e bc 88 bd ea 3a 98 f5 d0 3c a9 20 60 bd
       -0.019311327 0.0017909268 0.025507733 -0.054718647
0000e0 29 58 8e 3d 67 f0 c3 3d 76 6a 0f 3d 47 2c b2 bc
       0.06950409 0.095673375 0.03501364 -0.021749629
0000f0 65 e9 1e bb 8c f2 db 3c 61 c8 ef bd f3 70 92 bc
       -0.0024248 0.026849054 -0.11708141 -0.017876124
000100 aa fc 76 bc b8 48 83 bd 67 9e 4d 3d e3 56 76 3d
       -0.015074888 -0.064103544 0.050199892 0.060141455
000110 cc d5 07 3d 0c a1 25 bd c1 b3 c8 bd c0 f1 55 bd
       0.033162877 -0.04043679 -0.0979991 -0.052232504
000120 70 82 5e bd 95 e2 06 3d 40 15 b0 3d 2a 8a 91 3b
       -0.054323614 0.03293093 0.08597803 0.0044415193
000130 57 b1 35 b8 2c f2 5e 3d de b0 05 3b 77 23 c3 3d
       -4.3318923e-05 0.05443017 0.002039961 0.09528249
000140 0f 78 29 bd b9 58 9d 3d c0 17 1d 3d 50 6a 86 bd
       -0.041374262 0.07682938 0.038352728 -0.06563246
000150 c8 19 11 3c ed ba ce bd 4a 9e ad bd 45 a9 33 be
       0.008856244 -0.10094247 -0.08477457 -0.1754504
000160 4e b6 c1 3d b7 87 4a bd 30 b4 2e bd ef 55 c5 bc
       0.094586 -0.049445834 -0.04265231 -0.024088828
000170 dc 12 ba bc 22 ec eb 3d 09 45 ca bd ab 36 0e 3d
       -0.022714071 0.11519648 -0.09876449 0.034720104
000180 b2 95 74 3e a7 87 0d bd 5d 6f 49 3d 46 16 9a 3d
       0.23885229 -0.034553196 0.04917847 0.075237796
000190 90 62 ee bd c6 46 eb bd 79 88 5e bc 0d 4f 27 3d
       -0.11639893 -0.11488108 -0.013582342 0.040846873
0001a0 3d 9d 1f 3d 32 c3 9c 3d 59 30 70 bd be 47 07 bc
       0.038968313 0.07654418 -0.058639858 -0.008256851
0001b0 31 cc 2b 3d 62 e8 a3 3d 41 12 1a 3d e0 7f 9c bd
       0.04194278 0.08003308 0.037615065 -0.07641578
0001c0 64 a5 b4 ba b2 af 14 bd e9 05 49 3d e6 05 cc bc
       -0.00137822 -0.03630037 0.049077902 -0.024905156
0001d0 3a c3 55 3d 78 ac 3c bc 51 de 03 bd a9 c3 c0 bc
       0.052188136 -0.011515729 -0.03219444 -0.023530798
0001e0 fd 57 27 bd ba fe 26 bd 35 86 73 bd a1 6a 28 bd
       -0.040855397 -0.04077027 -0.05945416 -0.041117314
0001f0 07 b4 6d bc c8 18 eb bc 03 b2 19 bd 33 1c 86 3d
       -0.014508254 -0.02869834 -0.03752328 0.06548347
000200 1d 5d d1 bc 37 c8 a8 bd 70 6a 74 bd ba d9 5e 3e
       -0.025557095 -0.08241313 -0.05967182 0.21762744
000210 30 d0 07 3e 8f e6 f9 bd 6a b7 14 3d 10 7f 1e bd
       0.13263011 -0.12202179 0.03630773 -0.038695395
000220 bf e9 2d be e3 13 9e 3d fd 3a a0 bd 8b 9f 44 3d
       -0.16983698 0.07718637 -0.07823751 0.048003715
000230 bb b2 8b bc e3 a3 0d 3e 4f b4 a3 bd 22 2f 39 3b
       -0.017052999 0.13832049 -0.079933755 0.0028256853
000240 ca 7f d7 bd c3 2d b3 bd 04 31 6f bb 4e c4 c8 bd
       -0.10522421 -0.08748963 -0.0036497721 -0.09803067
000250 04 6d b6 3d 7a 7f 4a 3e 71 f1 d4 3c 70 e4 51 bd
       0.08907512 0.19775191 0.025994034 -0.051243246
000260 cf d9 c8 3c 85 3c ac 3d 87 38 95 bd f9 1d 00 be
       0.024517922 0.08409981 -0.07286172 -0.12511434
000270 db 42 be bc af 14 c0 3d 93 22 69 bd b8 e4 2b be
       -0.023225239 0.09378945 -0.05691774 -0.16786468
000280 d5 36 c9 bc 54 d6 6b 3d 18 57 88 3d 27 0a 96 3c
       -0.024562279 0.057577446 0.06657237 0.018315388
000290 5e a9 19 bc b0 c4 c1 3d 79 af 70 bd cb cc 15 bd
       -0.009378759 0.09461343 -0.058761094 -0.03657226
0002a0 b6 75 01 3e 6c 7e 92 3d 5f 92 e6 3d d2 27 10 3c
       0.1264256 0.07153019 0.11258387 0.008798556
0002b0 9d 70 07 bd a5 2f 82 bd a8 3c b7 3d 95 b3 b8 bd
       -0.03306638 -0.06356744 0.08947116 -0.090186276
0002c0 c1 94 b8 bb 43 41 99 3d 35 17 ac 3d 37 15 fa 3d
       -0.005632967 0.07483151 0.08402864 0.12211078
0002d0 3c 3c 89 3d 74 e9 e6 3d 8c 85 55 3c a0 87 d7 3d
       0.06700942 0.112749964 0.013032328 0.10523915
0002e0 23 8a 3a 3d 37 7c 44 bc 5e eb 21 3d 04 c8 32 bc
       0.045541894 -0.011992506 0.039531104 -0.010911945
0002f0 a1 cc 82 3d 0c 7f bc 3d 3c 0f bf 3d 95 b6 de 3d
       0.06386686 0.0920392 0.093290776 0.108746685
000300 94 cc 83 bc 87 6f 97 bd ee 33 60 3e ab 97 a4 3b
       -0.016088761 -0.07394319 0.2189481 0.005022963
000310 a4 16 a1 bd 38 a7 85 bc cf 0c 6d bd 7a 95 60 3d
       -0.078656465 -0.016315088 -0.057873543 0.054830052
000320 bc 0a 18 be 61 53 9a bd fa 82 4b bd f2 f1 6a bd
       -0.14847845 -0.075354345 -0.049685456 -0.057359643
000330 df f0 40 3d ce bc f6 3c 7b d4 9c bd bf 71 c2 3c
       0.047104713 0.030119326 -0.07657715 0.023735879
000340 09 40 bf bd b5 12 85 3d a5 a4 36 3b 61 9b d1 bd
       -0.093383856 0.06497709 0.0027869132 -0.10234714
000350 7a 7f d9 bd ce b8 06 be 0c af dd bd 8e 11 7d bc
       -0.10620017 -0.13156435 -0.10824403 -0.01544608
000360 13 f7 d3 bd 0b 78 d2 3d 6f 45 14 3e 42 54 3d be
       -0.1034986 0.10276803 0.14479612 -0.18489173
000370 bc 89 be 3d 66 06 0e be b6 6f 02 be c3 3d 10 bc
       0.093036145 -0.13869628 -0.12737927 -0.008803788
000380 9f 31 f8 bd c0 42 bd 3d 55 d9 1c 3d 74 71 95 3d
       -0.121188395 0.09241247 0.0382932 0.0729703
000390 45 ae 80 3d b6 5b ee bd a1 25 a1 3d d0 43 e1 3d
       0.06283239 -0.11638586 0.07868505 0.10999262
0003a0 6d 6b 67 bc 7d 14 a5 3d f5 6b 68 3e 39 eb 2c 3d
       -0.014124733 0.080605485 0.22697432 0.042216513
0003b0 ef cc 17 bc 96 fe 08 bc 62 00 66 bc ad dd 3e bd
       -0.009265169 -0.008361479 -0.014038177 -0.046598125
0003c0 6b 50 41 3c 75 78 80 bd c5 b7 7f 3c 79 c2 bc 3c
       0.011798958 -0.06272975 0.015607779 0.02304195
0003d0 93 49 4c 3d 3e fb f0 bc 96 e7 89 3c 49 52 21 3e
       0.049874853 -0.029416677 0.016834062 0.15754046
0003e0 06 fc 7d bc 85 21 46 3e 0b b5 05 3e 83 f6 3f bd
       -0.015501982 0.19348724 0.13057344 -0.04686595
0003f0 b6 e8 a4 3d 17 6b fb bd 6a fd f0 3c f4 ac aa 3d
       0.080521986 -0.12276285 0.029417712 0.083337694

network_body._body_endoder.seq_layers.2.bias f4 [128]
000000 00 00 00 00 00 00 00 00 00 00 00 00 00 00 00 00
       0.0 0.0 0.0 0.0
000010 00 00 00 00 00 00 00 00 00 00 00 00 00 00 00 00
       0.0 0.0 0.0 0.0
000020 00 00 00 00 00 00 00 00 00 00 00 00 00 00 00 00
       0.0 0.0 0.0 0.0
000030 00 00 00 00 00 00 00 00 00 00 00 00 00 00 00 00
       0.0 0.0 0.0 0.0
000040 00 00 00 00 00 00 00 00 00 00 00 00 00 00 00 00
       0.0 0.0 0.0 0.0
000050 00 00 00 00 00 00 00 00 00 00 00 00 00 00 00 00
       0.0 0.0 0.0 0.0
000060 00 00 00 00 00 00 00 00 00 00 00 00 00 00 00 00
       0.0 0.0 0.0 0.0
000070 00 00 00 00 00 00 00 00 00 00 00 00 00 00 00 00
       0.0 0.0 0.0 0.0
000080 00 00 00 00 00 00 00 00 00 00 00 00 00 00 00 00
       0.0 0.0 0.0 0.0
000090 00 00 00 00 00 00 00 00 00 00 00 00 00 00 00 00
       0.0 0.0 0.0 0.0
0000a0 00 00 00 00 00 00 00 00 00 00 00 00 00 00 00 00
       0.0 0.0 0.0 0.0
0000b0 00 00 00 00 00 00 00 00 00 00 00 00 00 00 00 00
       0.0 0.0 0.0 0.0
0000c0 00 00 00 00 00 00 00 00 00 00 00 00 00 00 00 00
       0.0 0.0 0.0 0.0
0000d0 00 00 00 00 00 00 00 00 00 00 00 00 00 00 00 00
       0.0 0.0 0.0 0.0
0000e0 00 00 00 00 00 00 00 00 00 00 00 00 00 00 00 00
       0.0 0.0 0.0 0.0
0000f0 00 00 00 00 00 00 00 00 00 00 00 00 00 00 00 00
       0.0 0.0 0.0 0.0
000100 00 00 00 00 00 00 00 00 00 00 00 00 00 00 00 00
       0.0 0.0 0.0 0.0
000110 00 00 00 00 00 00 00 00 00 00 00 00 00 00 00 00
       0.0 0.0 0.0 0.0
000120 00 00 00 00 00 00 00 00 00 00 00 00 00 00 00 00
       0.0 0.0 0.0 0.0
000130 00 00 00 00 00 00 00 00 00 00 00 00 00 00 00 00
       0.0 0.0 0.0 0.0
000140 00 00 00 00 00 00 00 00 00 00 00 00 00 00 00 00
       0.0 0.0 0.0 0.0
000150 00 00 00 00 00 00 00 00 00 00 00 00 00 00 00 00
       0.0 0.0 0.0 0.0
000160 00 00 00 00 00 00 00 00 00 00 00 00 00 00 00 00
       0.0 0.0 0.0 0.0
000170 00 00 00 00 00 00 00 00 00 00 00 00 00 00 00 00
       0.0 0.0 0.0 0.0
000180 00 00 00 00 00 00 00 00 00 00 00 00 00 00 00 00
       0.0 0.0 0.0 0.0
000190 00 00 00 00 00 00 00 00 00 00 00 00 00 00 00 00
       0.0 0.0 0.0 0.0
0001a0 00 00 00 00 00 00 00 00 00 00 00 00 00 00 00 00
       0.0 0.0 0.0 0.0
0001b0 00 00 00 00 00 00 00 00 00 00 00 00 00 00 00 00
       0.0 0.0 0.0 0.0
0001c0 00 00 00 00 00 00 00 00 00 00 00 00 00 00 00 00
       0.0 0.0 0.0 0.0
0001d0 00 00 00 00 00 00 00 00 00 00 00 00 00 00 00 00
       0.0 0.0 0.0 0.0
0001e0 00 00 00 00 00 00 00 00 00 00 00 00 00 00 00 00
       0.0 0.0 0.0 0.0
0001f0 00 00 00 00 00 00 00 00 00 00 00 00 00 00 00 00
       0.0 0.0 0.0 0.0
