DAinGD Lab#5/MLA_Lab4/results/EconomicX/Economic/Economic-1591.onnx (onnx, 76961 bytes, 8 tensors)

action_model._continuous_distribution.log_sigma f4 [1, 5]
00000000: 0000 0000 0000 0000 0000 0000 0000 0000
00000010: 0000 0000
0.0 0.0 0.0 0.0 0.0

action_model._continuous_distribution.mu.bias f4 [5]
00000000: 0000 0000 0000 0000 0000 0000 0000 0000
00000010: 0000 0000
0.0 0.0 0.0 0.0 0.0

action_model._continuous_distribution.mu.weight f4 [5, 128]
00000000: 4b6c 303c 0216 e5bc 69fe 393c 1774 b8ba
00000010: c35c 793c ad43 6bbb 2b83 e8bc 4084 afbc
00000020: 3ac2 15bc af4d 52bc 9bd1 e03c c603 833c
00000030: cf0e c33c b78e d53b 7265 2abd 4e23 29bc
00000040: 5b76 393c a07a 713c d291 a8bc fc90 15bd
00000050: 8bb2 5cbc ebae a53c 2537 0c3c 5b4d bf3b
00000060: 4bf0 a03c 286e 6fba 3ec9 433b 5bb4 c4ba
00000070: a142 0fbb 47a9 213c 1aa5 74ba 81aa 04bb
00000080: 0d0a dabc 09a9 0b3c b37c 8f3c 7372 f83c
00000090: 3bec 0e3c 311a a43a c511 a23c 9d3c 35bc
000000a0: 542a 22bd 2317 28bc 763c 81bc 3653 9dbc
000000b0: 3741 10bc 1508 6d3c 9339 b4bc 6b52 2cbb
000000c0: 1c6e bcbc b56d cbbb 5a24 4a3c 228c 3f3b
000000d0: dbf7 133b 2ace c33c e354 aebc fdaa 1ebd
000000e0: f3bb bc3b 4be4 67bc 5659 0fbd 85f0 e93b
000000f0: 7e17 b1bb ba6e 223c 3a66 d0bb 4485 43bc
00000100: 4f7c ecbc e129 303b bb8f 643c 0900 b13c
00000110: b612 283c d7b3 da3c 94c5 a63b 53d9 41bb
00000120: 8551 a8ba cb58 1cbd 639b b8bb ed97 82bc
00000130: 4a4b 533b f75f 62bc 1359 683c 7a67 e7bc
00000140: 8b12 5f3c f8a4 1a3c d780 80bc 80a0 f63c
00000150: d5d5 d8bc 18ee f93b 8910 84bc b99a 163d
00000160: 100f 60bc 2685 1c3c f3c0 abbc 57ac 69b7
00000170: f399 5ebc 96ac 393c 8b9c c2bc cc44 1ebc
00000180: 076b 163c 4dd5 24bc 829d 65bb cd0f 88bc
00000190: 97cf 3abc 3821 b63c f345 3039 3365 e739
000001a0: 00d7 f0bb 836f 653c 18da dc3a a20f de3b
000001b0: 8518 793c 8f86 d0bb 46de 1dbc efff f5bb
000001c0: 22e5 64bc 72d4 dc3a 3754 f33b bba4 1abc
000001d0: a0cb 9abc 0819 5abc ae6e 1cbd 5686 053d
000001e0: 7546 09bc 430d ec3c 037e c93b 6867 743b
000001f0: cb8d 913c aae8 c23c e3b1 cb39 aff0 f53a
00000200: d2f1 ac3c 955d 9bbc 0cbb 343c 4d74 c23c
00000210: ef8f bbbc 581e 30bb bd9f 563c 0f41 c6bc
00000220: 7f9b a1bc 4a70 843b 4d82 273c 8384 06bd
00000230: a379 d83c 6808 b53b fbec 2bba c3ed 45bc
00000240: 3732 a5bb 700c 7c3c 6111 aebc d86f 47bb
00000250: 7761 15bc 584f a93b 8ba0 7e3c 17db 81bc
00000260: e5a5 c33c 75ce 4bbc 1b97 893b e962 aabc
00000270: 70a1 f5bc 9b64 0c3c d1a7 b73b 3248 bb3a
00000280: 3f2e 5c3c ba9b 0b3c d090 753a 193d a83b
00000290: 4787 e5bc cc78 933c 3878 6f3b 204a c03a
000002a0: 0525 ff3a b91b 3abc 5170 93bc f0da ac3c
000002b0: 3f08 723c 5910 0cbc 71ba ad39 bba6 a3bc
000002c0: 7dc8 9ebb 9556 673c 7bfc 4cbc e858 3ebb
000002d0: 437a d8bb d7c5 a3bb 3328 643c f2a6 71bc
000002e0: 953e 8ebc c682 9e3c 82ff debb 5f59 aa3c
000002f0: 92e5 12bd 7b29 993b c905 21bc bffb 7b3c
00000300: 07d5 523c 43d7 d63a d7a7 9abb 8535 4f3c
00000310: a715 25bc 5b3f 073c 272e 953b 968b 383c
00000320: 60fa 8ebc f7f3 d7bb dfc5 243c 6d49 7dbc
00000330: a831 04bc 2829 373c 6d96 d03b c8d9 5f3c
00000340: 7759 96bc 829d d5bb f1af 243c 0cc3 9d3b
00000350: 32be 603c 0bc0 08bc ee4f c2bc 7a3c 1b3b
00000360: 2fd5 b1bc 247f c0bc bbe7 87ba 6867 923a
00000370: a75e 25bd bb18 bc3a fd52 e73a bee4 053c
00000380: cade 793b 818b 943c 96df a63c 0a87 da3a
00000390: bceb a5bc 735a 69bc 5fee 0c3c df02 dd3b
000003a0: 3a77 033d b00a 98bb fb71 e4bb ef05 8bbb
000003b0: 3340 973b 75de c43c ef75 9abc cbfb 143d
000003c0: 0f6f 77bb eb15 ca3b 0cf9 94ba 215d 8e3d
000003d0: 1c7f acbb aa67 453c 77cb 2d3b c608 16bd
000003e0: 9dda f83b ec74 263d 988b e1bb 5e40 8ebb
000003f0: df4e 89bc 48a1 59bb e3db a43c 0b16 a73c
0.010768007 -0.027964596 0.01135216 -0.0014072683 0.01521987 -0.0035898492 -0.028382858 -0.021425366
-0.0091405455 -0.012835904 0.027443698 0.01599301 0.023810772 0.006517257 -0.041600652 -0.010323359
0.011319722 0.014738709 -0.020577345 -0.03651522 -0.013470302 0.020225009 0.008558069 0.005838079
0.01964583 -0.0009133541 0.0029874588 -0.0015007363 -0.0021859782 0.009867019 -0.00093324634 -0.002024323
-0.02661612 0.008524188 0.017515516 0.030328011 0.008723314 0.0012520013 0.019783864 -0.011061815
-0.03959115 -0.0102594225 -0.0157759 -0.019204717 -0.008804611 0.014467259 -0.02200011 -0.0026294242
-0.023001723 -0.0062081465 0.012337768 0.0029227813 0.0022578153 0.023902018 -0.021280712 -0.038737286
0.00575971 -0.01415355 -0.034997307 0.007139268 -0.005404412 0.009914095 -0.0063598426 -0.0119336285
-0.028867869 0.002688043 0.013950284 0.021606462 0.010258367 0.026697082 0.005089471 -0.0029578998
-0.0012841678 -0.038170617 -0.005633758 -0.015941584 0.003224092 -0.013816825 0.014181393 -0.028247584
0.013615261 0.009438746 -0.015686436 0.03010583 -0.02646915 0.00762726 -0.016121166 0.03676865
-0.013675466 0.009553229 -0.020966029 -1.3928008e-05 -0.013586509 0.011332652 -0.023756286 -0.009659957
0.009180791 -0.0100606205 -0.003503651 -0.016609097 -0.011402032 0.022232637 0.00016810726 0.00044135153
-0.0073498487 0.014003637 0.0016849665 0.006776766 0.0152036 -0.006363697 -0.009635514 -0.0075073163
-0.013970645 0.0016847982 0.0074258107 -0.009438689 -0.018895924 -0.013311632 -0.03819149 0.032598816
-0.008378615 0.028814917 0.006149055 0.003729308 0.017767807 0.023792583 0.00038851713 0.0018763746
0.021111403 -0.018965522 0.011030924 0.023737097 -0.022895781 -0.0026873555 0.013099608 -0.024200944
-0.019727467 0.004041706 0.010223937 -0.032841217 0.026425188 0.0055246837 -0.0006558445 -0.012080613
-0.0050413865 0.015383825 -0.021248521 -0.0030431654 -0.009117476 0.005166929 0.015541206 -0.01585154
0.023882816 -0.01243936 0.0041989214 -0.020799117 -0.029984206 0.008568908 0.005604722 0.0014288484
0.01343876 0.008521015 0.0009367587 0.0051342365 -0.028018607 0.018001936 0.0036540162 0.0014670528
0.0019465989 -0.011359149 -0.017997893 0.021100491 0.014772474 -0.008548819 0.0003313604 -0.019976964
-0.0048456774 0.014119764 -0.012511368 -0.0029044691 -0.0066063716 -0.0049979496 0.0139256 -0.0147492755
-0.017363826 0.019349467 -0.0068053612 0.020794569 -0.035863467 0.0046741343 -0.009828039 0.015379845
0.0128681725 0.0016391057 -0.004719715 0.012647037 -0.010075963 0.008254851 0.004552621 0.011263749
-0.017453372 -0.006590362 0.010056942 -0.015459401 -0.00806848 0.011179246 0.0063655884 0.013662763
-0.018353207 -0.0065190205 0.010051713 0.004814511 0.013717221 -0.008346568 -0.023719754 0.002368717
-0.0217081 -0.023498125 -0.0010368744 0.0011169733 -0.04037347 0.0014350632 0.0017648634 0.008172212
0.0038127177 0.018132927 0.020370286 0.0016672325 -0.020254008 -0.014242756 0.008601754 0.006744727
0.032096125 -0.004639946 -0.0069715953 -0.0042426507 0.0046158074 0.024031857 -0.018855063 0.03637294
-0.0037755405 0.0061671636 -0.0011365726 0.06951357 -0.005264176 0.012048641 0.002651898 -0.03662946
0.00759442 0.04063885 -0.006883096 -0.0043411693 -0.016761241 -0.0033207703 0.020124381 0.020396253

action_model._discrete_distribution.branches.0.weight f4 [1, 128]
00000000: 93b2 4e3b 6df0 afbb 1f95 2d3c 7330 2ebb
00000010: c7b3 3cbb 94c2 8e3b 446d 053b f071 c2bb
00000020: 93a7 35bc 88a6 80b9 5352 e7ba d2b6 9dbc
00000030: deb0 9fbb f2c8 85bb 10bd 6abb 57e4 253c
00000040: bb3c c5bb 849b b2bc cdb5 45bb 4b88 143a
00000050: 5058 91bb 9c6e 19bc 4308 4cbb 3f71 e0bb
00000060: d21b 803c 374c f1bb 8f3d 9d39 4e33 2dbb
00000070: 4700 ac3c fc88 9f38 dce2 9c3c 37d5 c53b
00000080: 3db9 ce3c c5b3 353b a123 cb3a 2af2 f5ba
00000090: 4fc8 083a c70c dcbb 3f8f 2cbc ab7b 53bb
000000a0: 5b65 513b 7c3d 19bb 6eee 2a3c 38ab 7a3b
000000b0: 957c ef3b df12 133c 4399 053a 23a6 a73c
000000c0: 7cd9 1abb a308 a03b 9f89 1c3c 8f37 2abc
000000d0: 05b4 c53b bf26 5a3c fe95 46bc 5bf5 e6ba
000000e0: e250 a23c 85d1 503b a378 bdbb a3d5 46bb
000000f0: b19e 973a 87d6 183c 9b66 973b d2d4 163c
00000100: a81f 62bc 8091 29bc efc9 96bb b7ec a63b
00000110: 1b19 6f3c df6d e93b ebab 723c 9ad1 bb3a
00000120: 50d9 8a3b e0b3 e63b 5507 633b 672f 133c
00000130: 68d9 09bb 6ba9 303c 1369 8bba 97a6 373b
00000140: 1d89 ca3b adea e4bb 6b0c 01bc 87d9 a43b
00000150: e70a 663b ab53 253c dbee 013a afff f13a
00000160: afc3 253c 0105 3e3b 97ae 8dbb b3a4 56bc
00000170: 209f 58bb a2bc 133c cdb2 97bb b27c 5e3b
00000180: 8072 43bb ff3c 06bc 8acc 45bc 0565 8f3b
00000190: 1258 d33b 3719 453c 3d97 f2bb c214 713c
000001a0: ef48 69bc f0fd 5c3c 05c8 c23b a00f 54bb
000001b0: 3e0b 96bb 6517 4c3c d348 f93b bf3d 9e3a
000001c0: 5627 433c e236 8a3b 2d93 4e3b a3d9 2838
000001d0: 871d 003c 25ee 363a 7139 893c 2370 0cbc
000001e0: 4b64 af3b 4262 36ba 6ba2 083c 15f8 eaba
000001f0: 23d7 1fbc 926b fa3b 17cd 883b 53ff 5abc
0.0031539544 -0.005369237 0.010594635 -0.002657917 -0.002879368 0.0043566916 0.0020359317 -0.0059339926
-0.011087316 -0.00024538138 -0.0017648436 -0.019252215 -0.004873379 -0.0040827924 -0.0035818256 0.010125241
-0.0060192025 -0.021802671 -0.0030168176 0.0005666061 -0.0044355765 -0.00936475 -0.0031132854 -0.0068494375
0.015638266 -0.007363822 0.00029991238 -0.0026428285 0.020996226 7.607226e-05 0.019151144 0.00603738
0.025234813 0.002772556 0.0015498289 -0.0018764187 0.00052178366 -0.0067153904 -0.010532199 -0.0032269757
0.0031951282 -0.0023382595 0.010432823 0.0038249027 0.0073085525 0.008976667 0.0005096385 0.020464962
-0.0023628166 0.004883842 0.009554296 -0.010389223 0.006033423 0.013314902 -0.012120722 -0.0017620729
0.019813959 0.0031863165 -0.0057822033 -0.003033974 0.001156768 0.009328491 0.004620386 0.009206014
-0.013801493 -0.010349631 -0.004601709 0.0050941366 0.014593388 0.0071236934 0.014811496 0.0014329434
0.0042373314 0.0070404857 0.0034641821 0.00898347 -0.0021034125 0.01078258 -0.0010636173 0.002802288
0.006180896 -0.0069859833 -0.007876496 0.005030814 0.0035101713 0.010090749 0.0004956552 0.001846304
0.010117455 0.0028994682 -0.0043237912 -0.013100791 -0.003305383 0.009017142 -0.004629469 0.0033948836
-0.0029822886 -0.008193254 -0.012072692 0.004376056 0.006449708 0.0120299375 -0.007403283 0.014714422
-0.01423858 0.013488278 0.0059442543 -0.0032357946 -0.004578977 0.01245675 0.0076075583 0.0012072845
0.011911234 0.0042179683 0.003152083 4.025701e-05 0.00781954 0.00069782353 0.016751023 -0.008571657
0.005352532 -0.00069573906 0.008339505 -0.0017926717 -0.009755882 0.007642218 0.0041748392 -0.013366538

network_body._body_endoder.seq_layers.0.bias f4 [128]
00000000: 0000 0000 0000 0000 0000 0000 0000 0000
00000010: 0000 0000 0000 0000 0000 0000 0000 0000
00000020: 0000 0000 0000 0000 0000 0000 0000 0000
00000030: 0000 0000 0000 0000 0000 0000 0000 0000
00000040: 0000 0000 0000 0000 0000 0000 0000 0000
00000050: 0000 0000 0000 0000 0000 0000 0000 0000
00000060: 0000 0000 0000 0000 0000 0000 0000 0000
00000070: 0000 0000 0000 0000 0000 0000 0000 0000
00000080: 0000 0000 0000 0000 0000 0000 0000 0000
00000090: 0000 0000 0000 0000 0000 0000 0000 0000
000000a0: 0000 0000 0000 0000 0000 0000 0000 0000
000000b0: 0000 0000 0000 0000 0000 0000 0000 0000
000000c0: 0000 0000 0000 0000 0000 0000 0000 0000
000000d0: 0000 0000 0000 0000 0000 0000 0000 0000
000000e0: 0000 0000 0000 0000 0000 0000 0000 0000
000000f0: 0000 0000 0000 0000 0000 0000 0000 0000
00000100: 0000 0000 0000 0000 0000 0000 0000 0000
00000110: 0000 0000 0000 0000 0000 0000 0000 0000
00000120: 0000 0000 0000 0000 0000 0000 0000 0000
00000130: 0000 0000 0000 0000 0000 0000 0000 0000
00000140: 0000 0000 0000 0000 0000 0000 0000 0000
00000150: 0000 0000 0000 0000 0000 0000 0000 0000
00000160: 0000 0000 0000 0000 0000 0000 0000 0000
00000170: 0000 0000 0000 0000 0000 0000 0000 0000
00000180: 0000 0000 0000 0000 0000 0000 0000 0000
00000190: 0000 0000 0000 0000 0000 0000 0000 0000
000001a0: 0000 0000 0000 0000 0000 0000 0000 0000
000001b0: 0000 0000 0000 0000 0000 0000 0000 0000
000001c0: 0000 0000 0000 0000 0000 0000 0000 0000
000001d0: 0000 0000 0000 0000 0000 0000 0000 0000
000001e0: 0000 0000 0000 0000 0000 0000 0000 0000
000001f0: 0000 0000 0000 0000 0000 0000 0000 0000
0.0 0.0 0.0 0.0 0.0 0.0 0.0 0.0
0.0 0.0 0.0 0.0 0.0 0.0 0.0 0.0
0.0 0.0 0.0 0.0 0.0 0.0 0.0 0.0
0.0 0.0 0.0 0.0 0.0 0.0 0.0 0.0
0.0 0.0 0.0 0.0 0.0 0.0 0.0 0.0
0.0 0.0 0.0 0.0 0.0 0.0 0.0 0.0
0.0 0.0 0.0 0.0 0.0 0.0 0.0 0.0
0.0 0.0 0.0 0.0 0.0 0.0 0.0 0.0
0.0 0.0 0.0 0.0 0.0 0.0 0.0 0.0
0.0 0.0 0.0 0.0 0.0 0.0 0.0 0.0
0.0 0.0 0.0 0.0 0.0 0.0 0.0 0.0
0.0 0.0 0.0 0.0 0.0 0.0 0.0 0.0
0.0 0.0 0.0 0.0 0.0 0.0 0.0 0.0
0.0 0.0 0.0 0.0 0.0 0.0 0.0 0.0
0.0 0.0 0.0 0.0 0.0 0.0 0.0 0.0
0.0 0.0 0.0 0.0 0.0 0.0 0.0 0.0

network_body._body_endoder.seq_layers.0.weight f4 [128, 8]
00000000: 624a 16be f286 c03e 2d71 e2bc fb2c 86be
00000010: e59a 4c3b d9b0 cd3e 4ac8 1e3f 7ddb 0f3f
00000020: 1225 1fbe 7fc9 c73e 9679 33be 51c4 93bd
00000030: ce54 a4be 9eff 8e3e 8531 73be 7c75 893e
00000040: 0430 a53d b7f2 0c3f d4b0 e8bd 0aca 9b3b
00000050: aeb7 6c3e 5f32 ac3d a2f7 21be 6634 a13e
00000060: b4c8 68be 8c09 16be 535d 8b3e 1331 d2bd
00000070: 7844 4ebe 2bd8 7f3e 29e1 033e 23a8 33be
00000080: 8657 013f 06b8 9ebd e9e9 2e3f 5896 40bf
00000090: 0cf8 67be 9e2f 1d3f 724b 87be 3c42 083f
000000a0: 6e89 8bbe 3c05 d73e 6ccc 693e beaa fdbd
000000b0: cc2e e73e 1de5 203e b0c0 8dbe c9e0 823f
000000c0: f920 6cbe 3abe d7be 19b3 c0be e52e 25be
000000d0: dec6 ac3e d825 7d3e 6015 ba3d 44cd cabe
000000e0: 4c93 b3be f1af efbe 8b7a a93e 7606 7d3e
000000f0: 40c2 4abd 5496 fdbb 654c cdbe 324d 1bbe
00000100: 9533 afbe 9496 72be 9844 4d3e 7147 273f
00000110: daf7 ae3e 2662 8f3c 2651 d13e f4c2 06bf
00000120: 08c8 66be 5815 1dbc 5a27 30bd ed0f f1bd
00000130: ac15 4bbe ce42 8fbe a782 b43e e1c7 c63e
00000140: 9cba 1cbf 7a2e bcbd 2b36 02bf 5359 87be
00000150: 3f1a 21be c5b4 cc3e a621 b53e 8a1d d13e
00000160: 7956 733f b8ee 37bc c347 9dbe ec1b e3be
00000170: b4a0 f73e b3be 9abe 291f 7f3e 0904 583f
00000180: 6924 b03e 263e d33e 973e 38bd 1e01 4fbe
00000190: 0f1f 8d3c 74a7 4abd 651e 043f 4a26 813e
000001a0: f52a 163c bbe9 333f 5f49 a53c deff 15be
000001b0: 8cde 09bf 9e71 14bd 79ba b53e 4d99 663e
000001c0: 98fa d13e c1bb c93e a59d 17bb 8b5e 5ebd
000001d0: fb6f 133f c6b9 f93c 36d2 20be d027 b7be
000001e0: 319b 9f3c cb9f 153f 200d d9bd 0975 d23e
000001f0: ee15 32bf 2b3a 07be 7800 2b3e eaf3 a9be
00000200: 0193 25be ecc8 b5be 6d99 77bd eade a2be
00000210: a2eb e03c 5045 6b3e b1f7 ba3e 07f2 a43e
00000220: dbe0 ea3e 0523 513f 2bb8 9cbe a061 9abe
00000230: ae46 43be 6bbb 03bf 0d5c 77be 17fc 223d
00000240: 49bc c33d eb14 7f3e 3328 863e 697f b8be
00000250: 5050 fbbc 3cb7 593e 2d21 fcbe c647 03bb
00000260: f61b 8d3e 8ce1 9f3b 3716 02bf 9306 953f
00000270: 0ae8 8dbe 38d2 a23e d0c9 dcbe 99f3 f23e
00000280: d5f1 0dbf 776f a3be c442 dbbe 6f35 a8ba
00000290: 8d11 e03e 8baf 73be 9b1d fc3e 92df 83bf
000002a0: 512a a63e 99dc 7b3e b14e 893e 45f4 acbd
000002b0: 3fd3 ddbe 150d 83bd ec9e 0fbc 8ced c73e
000002c0: f912 273e 4481 48be 5cfb f1be 5f59 a9bb
000002d0: 1305 033f a94c 353e 02ce bc3e d2f0 683e
000002e0: 4e0b 9f3d a317 373e 8efd 553d 7730 15bf
000002f0: ab5e 0e3e ed41 74be c923 013e 4a63 d63e
00000300: b832 143f 4382 f3be 12ca d23e 2518 f33e
00000310: 604c 153c e412 bc3e 1ad4 d83e 8864 f83e
00000320: deaf cc3d 3e0b 98bd b94d 203f 4c70 31be
00000330: bc1d b23d 7257 e03d 930a e5be 88f0 103f
00000340: 4d01 123e bbd0 8c3e 5cb1 88be b849 9dbe
00000350: a42c c7bb a330 a33e 33b7 ab3e 7abb b63e
00000360: bb28 2abc 4b67 34bf bfa1 dd3d a756 c8be
00000370: 23fb 363e 6b87 0f3d 7461 3cbf 92c5 16be
00000380: ea9e c1be d214 b83e 43eb 1f3d f6df ebbe
00000390: 4831 373d 8e60 0cbf b6b7 573e 352e 0a3e
000003a0: 7185 d8be 2df6 713e e7c8 913e 9067 daba
000003b0: 509a 43be d21e 5cbe f502 bb3e 1fc0 e8be
000003c0: 76a1 933e b7bf fdbd f391 97be 1343 f4bd
000003d0: 1b33 713e 89f1 963e 0716 87be bff4 9a3e
000003e0: ca48 07be 3223 4b3e 1d3c c9be ccf2 623e
000003f0: 8c09 a83d d971 493d 52bf 2dbf 8d77 a43e
-0.14676812 0.37602955 -0.027641857 -0.26206192 0.0031220254 0.40173987 0.62024367 0.5619429
-0.15541485 0.39020917 -0.1752685 -0.07215179 -0.3209595 0.27929395 -0.23749359 0.26847446
0.08065799 0.55057853 -0.11361852 0.0047543095 0.23116943 0.08408045 -0.1581712 0.3148529
-0.22732812 -0.1465208 0.27219638 -0.102632664 -0.20143306 0.24984805 0.1287886 -0.17544608
0.50524175 -0.077499434 0.6832567 -0.75229406 -0.22653216 0.61400783 -0.26424748 0.53226066
-0.27253288 0.4199618 0.22831887 -0.12386082 0.4515289 0.157124 -0.2768607 1.0224849
-0.23059453 -0.4213732 -0.3763664 -0.1613117 0.33745474 0.24721467 0.09086108 -0.3960973
-0.35073316 -0.4681392 0.33101305 0.24709496 -0.049501657 -0.007738868 -0.40097347 -0.15166166
-0.3421904 -0.23690253 0.20045698 0.65343386 0.3417347 0.017502856 0.40882224 -0.52641225
-0.22537243 -0.009587608 -0.04300628 -0.11770616 -0.19832486 -0.27980655 0.3525593 0.3882437
-0.61222243 -0.09188552 -0.50863904 -0.26435336 -0.15732668 0.39981666 0.35377234 0.4084285
0.9505382 -0.011226349 -0.30718812 -0.4435724 0.48364794 -0.30223617 0.2491423 0.8438116
0.3440278 0.41258353 -0.044981565 -0.2021527 0.017226724 -0.049476102 0.5160888 0.25224525
0.009165515 0.7027852 0.020176588 -0.14648387 -0.53855205 -0.036241166 0.3549383 0.22519417
0.410115 0.39401057 -0.0023134735 -0.054289382 0.57592744 0.030484091 -0.15705189 -0.35772562
0.01948318 0.5844695 -0.105982065 0.41104916 -0.6956471 -0.13205783 0.16699398 -0.33193904
-0.16169359 -0.35504854 -0.060449053 -0.31810695 0.027456108 0.2297566 0.365171 0.32215902
0.45874676 0.8169406 -0.3060926 -0.30152607 -0.19069931 -0.5145785 -0.24156208 0.039791193
0.09557397 0.24910323 0.26202545 -0.36034706 -0.030677944 0.21261305 -0.4924406 -0.0020031794
0.27560395 0.004879182 -0.5081515 1.1642631 -0.27716094 0.3180101 -0.4312272 0.47451475
-0.5544713 -0.31920978 -0.42824376 -0.0012833307 0.4376339 -0.23797433 0.49241337 -1.0302603
0.3245416 0.2459587 0.2681785 -0.08445028 -0.4332523 -0.063989796 -0.008765917 0.3904842
0.16315831 -0.19580561 -0.47262084 -0.0051681246 0.5117962 0.17705025 0.3687592 0.22748116
0.07765828 0.1788011 0.05224376 -0.58277076 0.139033 -0.23853274 0.12611307 0.41872627
0.5788989 -0.4756032 0.41169792 0.47479358 0.0091124475 0.36733162 0.4234932 0.485142
0.099944815 -0.07424019 0.62618595 -0.17327994 0.08697078 0.10954179 -0.4473463 0.5661702
0.14258309 0.27503 -0.26697814 -0.30720305 -0.0060783196 0.31873044 0.33538207 0.35689908
-0.010385687 -0.7047011 0.10821866 -0.3912861 0.17869239 0.035041254 -0.735862 -0.14723805
-0.37816554 0.35953385 0.039042722 -0.46069306 0.044724733 -0.5483483 0.21066174 0.13494189
-0.42289308 0.23629065 0.2847359 -0.0016662944 -0.19101834 -0.21496132 0.36525694 -0.45459077
0.28834122 -0.12390082 -0.29603538 -0.11926856 0.23554651 0.29481152 -0.26383993 0.3026485
-0.1321136 0.19837645 -0.39303675 0.22162932 0.08204946 0.04918084 -0.67870057 0.3212246

network_body._body_endoder.seq_layers.2.bias f4 [128]
00000000: 0000 0000 0000 0000 0000 0000 0000 0000
00000010: 0000 0000 0000 0000 0000 0000 0000 0000
00000020: 0000 0000 0000 0000 0000 0000 0000 0000
00000030: 0000 0000 0000 0000 0000 0000 0000 0000
00000040: 0000 0000 0000 0000 0000 0000 0000 0000
00000050: 0000 0000 0000 0000 0000 0000 0000 0000
00000060: 0000 0000 0000 0000 0000 0000 0000 0000
00000070: 0000 0000 0000 0000 0000 0000 0000 0000
00000080: 0000 0000 0000 0000 0000 0000 0000 0000
00000090: 0000 0000 0000 0000 0000 0000 0000 0000
000000a0: 0000 0000 0000 0000 0000 0000 0000 0000
000000b0: 0000 0000 0000 0000 0000 0000 0000 0000
000000c0: 0000 0000 0000 0000 0000 0000 0000 0000
000000d0: 0000 0000 0000 0000 0000 0000 0000 0000
000000e0: 0000 0000 0000 0000 0000 0000 0000 0000
000000f0: 0000 0000 0000 0000 0000 0000 0000 0000
00000100: 0000 0000 0000 0000 0000 0000 0000 0000
00000110: 0000 0000 0000 0000 0000 0000 0000 0000
00000120: 0000 0000 0000 0000 0000 0000 0000 0000
00000130: 0000 0000 0000 0000 0000 0000 0000 0000
00000140: 0000 0000 0000 0000 0000 0000 0000 0000
00000150: 0000 0000 0000 0000 0000 0000 0000 0000
00000160: 0000 0000 0000 0000 0000 0000 0000 0000
00000170: 0000 0000 0000 0000 0000 0000 0000 0000
00000180: 0000 0000 0000 0000 0000 0000 0000 0000
00000190: 0000 0000 0000 0000 0000 0000 0000 0000
000001a0: 0000 0000 0000 0000 0000 0000 0000 0000
000001b0: 0000 0000 0000 0000 0000 0000 0000 0000
000001c0: 0000 0000 0000 0000 0000 0000 0000 0000
000001d0: 0000 0000 0000 0000 0000 0000 0000 0000
000001e0: 0000 0000 0000 0000 0000 0000 0000 0000
000001f0: 0000 0000 0000 0000 0000 0000 0000 0000
0.0 0.0 0.0 0.0 0.0 0.0 0.0 0.0
0.0 0.0 0.0 0.0 0.0 0.0 0.0 0.0
0.0 0.0 0.0 0.0 0.0 0.0 0.0 0.0
0.0 0.0 0.0 0.0 0.0 0.0 0.0 0.0
0.0 0.0 0.0 0.0 0.0 0.0 0.0 0.0
0.0 0.0 0.0 0.0 0.0 0.0 0.0 0.0
0.0 0.0 0.0 0.0 0.0 0.0 0.0 0.0
0.0 0.0 0.0 0.0 0.0 0.0 0.0 0.0
0.0 0.0 0.0 0.0 0.0 0.0 0.0 0.0
0.0 0.0 0.0 0.0 0.0 0.0 0.0 0.0
0.0 0.0 0.0 0.0 0.0 0.0 0.0 0.0
0.0 0.0 0.0 0.0 0.0 0.0 0.0 0.0
0.0 0.0 0.0 0.0 0.0 0.0 0.0 0.0
0.0 0.0 0.0 0.0 0.0 0.0 0.0 0.0
0.0 0.0 0.0 0.0 0.0 0.0 0.0 0.0
0.0 0.0 0.0 0.0 0.0 0.0 0.0 0.0

network_body._body_endoder.seq_layers.2.weight f4 [128, 128]
00000000: 0a54 9b3b f9b8 413d 4b96 77bb 77f8 ed3d
00000010: 5638 9d3d 248d 49bc 6a9c 153d 14a4 85bc
00000020: befb f3bd 498d ebbd 3c73 f1bd 58a2 0f3c
00000030: 6fe9 4b3b caa3 b73c 22e6 a73d e595 2ebd
00000040: 4fa7 153e 72f7 863d 58cd 3c3d 280c f8bc
00000050: d2d2 22be cc9f 86bd 9159 79bd 3654 91bd
00000060: e241 aabd a664 533d f5a9 d43c 3ff5 123e
00000070: 721d 9cbd 98e4 273d c1aa 38bc 7581 17be
00000080: 0a0e 1fbd 5f41 55bd f808 093d ca67 4ebd
00000090: afad 023e 3aac 02be 4401 36bd 256b 36bd
000000a0: f9b2 873d 7c1f cabc 16e8 8ebb 8e72 103d
000000b0: 7758 313d ed28 613d af51 583d 40ae 063d
000000c0: de87 bf3d 91e6 e5bc 93bb 8abd f573 c13d
000000d0: 6fca 43bc 8f52 003e 03ef ca3d 1a1d 1f3d
000000e0: b577 41bd 527f d03c be84 1f3c 10b8 71bd
000000f0: 4835 3c3e c45d 01be c632 01bd f53f c73d
00000100: bfee 6dbd 5a01 803c 87b9 703d 70b9 f23d
00000110: a131 16be f729 293e 9e71 45bd 67dd bfbc
00000120: 4a7c 923d 66b9 32bd 33fa cabc a44a 3dbc
00000130: c318 893b ce9b 283e cb11 e3bc 8e0a 01be
00000140: a484 c0bb 1a8b a6bd 9010 97bc 435f 49ba
00000150: c075 803c b131 73bc 9f62 81bb c806 0f3d
00000160: 7572 153d e278 3ebd 9599 1b3d ba62 83bd
00000170: 3a87 173e 70a0 93bc 2ddb 1d3e a612 9c3d
00000180: 96d2 e5bc 1fcc c63d 342d 0bbc d445 10bd
00000190: b04e 94bc a41b edbb 8c3d 76bd ebf8 803c
000001a0: 7ab3 33be 8499 e1bd e569 a6bd 07d7 07be
000001b0: 71ea d13d eef5 cb3c 1688 e83c 4fb0 233d
000001c0: 3dd3 bdbd 5735 98bd a9bc 8a3d 81cb 7cbd
000001d0: 95e0 9cbc 189e 29bc eb45 483e 29b1 c4bd
000001e0: 3a31 b1bd 6f7b ddbb 52f2 8c3c f97c 8cb9
000001f0: 2811 55bd d535 b0bd bd29 683c 6803 0c3e
00000200: fac9 a43d 7714 dcbb 7a68 82bd c022 8f3d
00000210: 0b46 04be f0ba 8fbd 8a1a 0b3e 04ef 433d
00000220: 6517 dfbd 3979 1e3d a4fb 9c3d afda 50be
00000230: 046c e23c 599a 06be a14e e93c 1895 85bd
00000240: 57f7 7f3d 7a8e 77bd e283 b23d 521d 573c
00000250: 6a44 e53d 18bc d1bd 7394 1b3a 29e0 0ebe
00000260: c12a 0cbd f50e a8bc 487e a8bd beba e2bc
00000270: a29c b5bd 0a0e 853d a099 f9bd 5c50 0bbe
00000280: 00cb 0cbe 0b97 dc3d a7cb aabb 5d5d a6bd
00000290: b936 5d3d 3673 983d 220a 423d 167c a0bd
000002a0: eb9e 983d 70d0 cabd dda6 02be 522a f6bd
000002b0: 5f81 c13c 799e 5a3d 0a40 783d 7105 b03d
000002c0: f833 b1bd a1cd 103d 7c9e d93b df1b 3d3d
000002d0: 6c28 ccbd f8c3 d4bb 0419 e33d a3fe 373d
000002e0: 7284 0abe dfab f53d 7823 2cbd c1cd d1bd
000002f0: 438a db3d 842a 75bc 6069 903d 78fb 97bc
00000300: accc efbc 8457 c83d b8bb a2bc f4c3 c43d
00000310: 378d 06bd 5234 62ba 9fb9 06be e033 59bd
00000320: 6c3f 2ebc e00d b1bd fe5b 853c 7613 443d
00000330: 1f1d 65bd 4ece e8bd 8ed3 edbd 626d 583d
00000340: 09a2 923c 6657 f53c b2dc b93c 294f 463d
00000350: 2bc5 f83c c2d2 eabc 70bf 103e 3366 9dbc
00000360: 84ba 613c 7589 fcbc 3a82 01be a2bf ac3d
00000370: a1c6 ef3d 1ce9 13bc cd29 20be f503 e9bd
00000380: 1e03 043d 1ff1 483e 3801 c8bd 11f4 ebbd
00000390: 32be a03d dd79 8ebd 3b97 a43d 36b1 553d
000003a0: 19b3 693d 306f d3ba b973 f93c e7b9 1bbd
000003b0: 28f5 89bc 708d 9dbd bac1 bebc ebd6 58bd
000003c0: 9f71 9f3d b5b9 bdbc e042 fc3d 5b46 b1bd
000003d0: 8616 c93d 5726 a3bd 0309 603d 5631 8d3c
000003e0: bb47 41be d918 dabc 6d43 0bbd 3a55 a93c
000003f0: 4dfa 0dbc 2b28 503d f04b 193b 0b9d f7bc
0.004740243 0.047295544 -0.003777879 0.116196565 0.07676761 -0.012301717 0.03652612 -0.01631359
-0.119132504 -0.115015574 -0.11789557 0.008766733 0.003111448 0.022416968 0.08198191 -0.04262342
0.14614604 0.06590165 0.04609427 -0.030279234 -0.15900734 -0.065734476 -0.060876433 -0.0709614
-0.083133474 0.051609658 0.025959948 0.14351366 -0.07622804 0.04098949 -0.01127118 -0.14795478
-0.038831748 -0.052064296 0.03345582 -0.05039195 0.12761568 -0.12761012 -0.0444348 -0.044535775
0.06625933 -0.024673216 -0.004361163 0.035265498 0.043297257 0.05497067 0.052812275 0.03288102
0.093520865 -0.028064044 -0.06774058 0.09445945 -0.011950119 0.12531494 0.09908869 0.038846113
-0.047233302 0.025451336 0.009736238 -0.059013426 0.183797 -0.12633425 -0.031542562 0.09728996
-0.058089014 0.015625644 0.058770683 0.11851776 -0.1466737 0.16519915 -0.048204057 -0.023421003
0.071526125 -0.04363384 -0.024777507 -0.01155344 0.00418386 0.16465685 -0.027718445 -0.12601683
-0.005875187 -0.08132 -0.018440515 -0.00076817366 0.015681148 -0.01484339 -0.003948524 0.034918576
0.036486108 -0.046502 0.037988264 -0.06415315 0.14797679 -0.018020838 0.1541564 0.076207444
-0.028054517 0.09706902 -0.008494664 -0.035222843 -0.018103927 -0.007235961 -0.06011729 0.015743693
-0.17548934 -0.11015609 -0.081256665 -0.1326562 0.10249794 0.024897542 0.028385203 0.039963063
-0.09268806 -0.07432049 0.06774265 -0.061717514 -0.019150058 -0.010352634 0.19557922 -0.09604103
-0.08651967 -0.006759099 0.017205391 -0.00026795993 -0.052018315 -0.08604018 0.014170107 0.13673174
0.080463365 -0.006716307 -0.063675836 0.0698905 -0.12917344 -0.070180774 0.13584343 0.047835365
-0.10893134 0.038689826 0.07665184 -0.20395921 0.027639396 -0.13144816 0.028479876 -0.06522578
0.06249174 -0.06043861 0.08716561 0.013129549 0.111946896 -0.10240954 0.00059349014 -0.13952698
-0.03422046 -0.020514945 -0.08227211 -0.027676936 -0.08867766 0.06496818 -0.12187505 -0.13604873
-0.13749313 0.10770997 -0.0052122655 -0.081232764 0.054007266 0.0744385 0.047372945 -0.078361675
0.07452186 -0.099030375 -0.12758966 -0.12019791 0.02362126 0.053373788 0.060607947 0.08594788
-0.086524904 0.035352353 0.0066412073 0.046169158 -0.09968647 -0.006493088 0.11088756 0.044920575
-0.13527086 0.119956724 -0.042026013 -0.102443226 0.10719731 -0.01496375 0.07051349 -0.018552527
-0.0292724 0.09782317 -0.019864902 0.096076876 -0.032849517 -0.0008629012 -0.13156746 -0.053027987
-0.010635238 -0.086452246 0.016279217 0.047870122 -0.055935975 -0.113674745 -0.116126165 0.05283869
0.01789953 0.029948901 0.022688244 0.048415337 0.030367455 -0.02866495 0.14135528 -0.019213771
0.013777379 -0.030827263 -0.12647334 0.084349886 0.11707807 -0.009027746 -0.15640946 -0.11377708
0.032229535 0.1962323 -0.097658575 -0.11521161 0.07848777 -0.06956837 0.080366574 0.052170955
0.057055566 -0.0016131159 0.030450689 -0.038019087 -0.016840532 -0.07692993 -0.023285735 -0.052939337
0.077853434 -0.023159841 0.12317443 -0.08655997 0.09818749 -0.07966297 0.054696094 0.01723544
-0.18875019 -0.026623176 -0.03399985 0.020670522 -0.008665633 0.050819557 0.002339121 -0.030226251
