DAinGD Lab#5/MLA_Lab4/results/EconomicX/Economic.onnx (onnx, 76961 bytes, 8 tensors)

action_model._continuous_distribution.log_sigma f4 [1, 5]
0	0x3b3c162b	0.0028699737
1	0x3bf522a5	0.0074809366
2	0x3c13b510	0.009015337
3	0x3bb1fa37	0.0054314393
4	0x3bb8b7d6	0.0056371493

action_model._continuous_distribution.mu.bias f4 [5]
0	0xba200b25	-0.0006105176
1	0xb9f42328	-0.000465655
2	0xb93f01ff	-0.00018215923
3	0x3a94abcc	0.0011342703
4	0xbb4302b1	-0.0029756243

action_model._continuous_distribution.mu.weight f4 [5, 128]
0	0xbb773a07	-0.0037723796
1	0xbbaee123	-0.005336897
2	0x3c314570	0.010819778
3	0x3bd3b41f	0.006460681
4	0xbcb4c310	-0.02206567
5	0xbc3915eb	-0.01129673
6	0xbc3ea670	-0.0116363615
7	0x3b52ad0f	0.0032146608
8	0xb902a3a2	-0.00012458724
9	0x3d229e33	0.03970165
10	0xbc8bb247	-0.017052783
11	0xbad19c0d	-0.0015991941
12	0xbc15b9af	-0.009138509
13	0xbd2949f9	-0.04133031
14	0xbc8f6adf	-0.017507015
15	0x3cbe3e6c	0.023223124
16	0xbcba2af7	-0.022725565
17	0xbc38777b	-0.011258955
18	0x3bdabd86	0.006675425
19	0x3c453782	0.01203716
20	0xbad46736	-0.0016205076
21	0xbbddf4cd	-0.0067735673
22	0x3baa3b62	0.0051950673
23	0x3c703f80	0.014663577
24	0x3a02c591	0.0004988546
25	0xbb855477	-0.004068907
26	0xbba6bf7d	-0.005088745
27	0x3af3b91b	0.0018594594
28	0x3b00b465	0.0019638774
29	0xbc810fc1	-0.015754582
30	0xbb06e85b	-0.0020585272
31	0xbca731ec	-0.020409547
32	0xbb8c4125	-0.004280227
33	0x3c28b594	0.010297198
34	0x3ca75081	0.02042413
35	0x3ca3ed46	0.020010602
36	0x3cb52843	0.022113925
37	0xbbbf53da	-0.0058388533
38	0x3d05edd7	0.032697525
39	0xbc23cba2	-0.00999728
40	0x3cd96356	0.026536625
41	0xbbe4a4d3	-0.0069776564
42	0x3cb812c0	0.022469878
43	0x3c8b73d5	0.017023006
44	0x3c152f24	0.0091054775
45	0x3bf25c08	0.007396225
46	0xbbc84fcb	-0.0061130277
47	0x3ccdbfaa	0.025115807
48	0xb92dd7db	-0.00016578978
49	0xbc829e65	-0.015944669
50	0x3c375ae4	0.011191104
51	0xbcc8844b	-0.024477145
52	0xbcd25fdd	-0.025680477
53	0xbb927e57	-0.0044706273
54	0x3d372dc4	0.04472138
55	0xbcacae04	-0.02107907
56	0x3bb6a98f	0.005574412
57	0x3beab25f	0.007162377
58	0x3c97877a	0.018497217
59	0x3c4d53ca	0.012532184
60	0x3baa5db4	0.0051991586
61	0x3c15efdd	0.009151426
62	0xbae0fc4d	-0.0017165035
63	0xbcaf0a13	-0.021367108
64	0x3ae48b75	0.0017436581
65	0xbc08431d	-0.008316782
66	0xbc6f51e1	-0.014606924
67	0x3c99e661	0.018786611
68	0x3b46e8ee	0.003035124
69	0x3c4069f9	0.011744016
70	0xbb95a1ad	-0.0045663924
71	0xbbb0d3e5	-0.0053963535
72	0x3cb01c33	0.021497821
73	0x3c934435	0.01797686
74	0xbb004da0	-0.0019577518
75	0x3ce1867c	0.027529947
76	0x3cad96f1	0.021190139
77	0x3c2dac73	0.010600197
78	0x3b878056	0.004135172
79	0xbcb00673	-0.02148745
80	0xbb593474	-0.0033142837
81	0x3cba97b3	0.022777414
82	0xbae7b7ba	-0.0017678656
83	0xbb892695	-0.0041855075
84	0x3b2bb75c	0.002620182
85	0x3ca2c69d	0.019870097
86	0x3bb96f99	0.0056590554
87	0x3cb95811	0.022625001
88	0x3c2c987b	0.010534401
89	0xbc1da3da	-0.009621585
90	0x3b9b6fcc	0.004743552
91	0x3cdd721f	0.027031956
92	0xba6bb1eb	-0.00089910504
93	0xbc8652ec	-0.016396962
94	0xbd2a87c7	-0.041633394
95	0x3cd1919a	0.025582124
96	0xbc68cf2e	-0.014209552
97	0xbb92a1a7	-0.004474837
98	0x3c8a6113	0.016891992
99	0xbc99be16	-0.018767398
100	0x3c0c682a	0.0085697565
101	0x3c21e6d0	0.00988169
102	0x3cd3eddf	0.025870262
103	0x3c806ca5	0.015676806
104	0xbbcc3058	-0.006231349
105	0x3d00141f	0.03126919
106	0xbc8de83f	-0.017322658
107	0x3ce09fa5	0.027419874
108	0xbd024014	-0.03179939
109	0x3b6474a3	0.003485956
110	0xbb91f4b2	-0.004454219
111	0xbc37e8a7	-0.011224902
112	0x3cfb8e0f	0.030707387
113	0xbbd7823f	-0.006576806
114	0x3cb28c53	0.021795427
115	0xbd10095b	-0.035165172
116	0x3c8a32b6	0.016869884
117	0xbc428cb2	-0.011874365
118	0xbcafa4e1	-0.021440925
119	0xbc7157a9	-0.0147303725
120	0xbc81f801	-0.015865328
121	0xbc23afc2	-0.009990634
122	0xbc5cdeb8	-0.013480835
123	0xbc96be02	-0.01840115
124	0xbc01f8e4	-0.007932875
125	0xbc334491	-0.0109416405
126	0xbbe2991e	-0.0069152256
127	0x3bd3fc96	0.0064693196
128	0xbc3ceedc	-0.011531558
129	0x3c1a111f	0.009403496
130	0xbbd33adf	-0.006446227
131	0x3cf657f7	0.030071242
132	0x3c322589	0.010873207
133	0x3bdebff0	0.006797783
134	0xbb1abb72	-0.0023610261
135	0xbd0556f8	-0.032553643
136	0x3bb582fe	0.005539297
137	0x3d4fe713	0.05075748
138	0xbcbc1eec	-0.022963963
139	0xbc5cfb5e	-0.013487665
140	0xbbb94a24	-0.00565459
141	0x3c5cfd5b	0.013488139
142	0x3be36e6a	0.0069406526
143	0x3cdf4c70	0.027258128
144	0xbc903705	-0.01760436
145	0xbc8bf3e2	-0.017084066
146	0x3b794c5d	0.00380399
147	0xbcb591dd	-0.02216428
148	0x3b98e1ac	0.004665574
149	0x3c826963	0.015919393
150	0xbaef7c4e	-0.0018271299
151	0x3c480c51	0.012209968
152	0xbb5cdae6	-0.003369981
153	0x3cec6132	0.02885494
154	0x3cd306d6	0.025760096
155	0xbb0b4e7c	-0.0021256497
156	0x3baf5b55	0.005351464
157	0xbc67aaf4	-0.0141398795
158	0xbc1679e9	-0.009184339
159	0xbc217409	-0.009854325
160	0xbc83db69	-0.016095834
161	0xbba11519	-0.004915845
162	0x3c22c8fc	0.009935614
163	0x3cb002c7	0.0214857
164	0xbcd04958	-0.025425598
165	0xbc429785	-0.011876945
166	0xbc0def1e	-0.008662967
167	0xbc679d78	-0.014136665
168	0x3acae607	0.001547993
169	0x3b863999	0.0040962216
170	0x3c8d8eba	0.017279971
171	0xbd2e97bf	-0.042625185
172	0x3c5cc5ed	0.013474924
173	0x3cac3995	0.021023551
174	0x3c689704	0.014196161
175	0x3c452400	0.012032509
176	0x3c92872c	0.01788672
177	0x3c850fe7	0.016242934
178	0x3c8ea59c	0.017412953
179	0xbc189712	-0.009313362
180	0xbc74a82c	-0.014932673
181	0xbc1f910c	-0.009739172
182	0xba0fdbdb	-0.0005487778
183	0x3a233223	0.00062254275
184	0xbc900186	-0.017578851
185	0xbc605bf2	-0.0136937965
186	0xbcfa24d2	-0.030535135
187	0x3c005d5b	0.007834758
188	0x3b9d8594	0.0048071835
189	0x3c5c06fb	0.013429399
190	0xbb33128e	-0.0027324292
191	0xb86c8466	-5.639009e-05
192	0xbc3df80d	-0.011594784
193	0x3cc10ea9	0.02356656
194	0xbcf45939	-0.0298277
195	0xbbf96fc8	-0.0076122023
196	0xb96d16b4	-0.00022610539
197	0x3b9f5e1a	0.0048635127
198	0xbc2af716	-0.010434886
199	0x3c32cd28	0.010913171
200	0xbbf46f78	-0.007459577
201	0x3cb153ae	0.021646347
202	0x3cd28027	0.025695873
203	0xbbfd15d9	-0.0077235517
204	0xbc5effdc	-0.013610806
205	0xbb27986b	-0.0025573026
206	0xbc6e5c15	-0.014548321
207	0x3af5440f	0.00187123
208	0xbcda9c8f	-0.026685981
209	0xbcda5944	-0.026653893
210	0x3c339e72	0.010963069
211	0xbc9dd6f4	-0.019267537
212	0xbcabb7bf	-0.02096164
213	0xbc82ac4b	-0.015951296
214	0x3c849d57	0.016188307
215	0x3c7bf088	0.015377171
216	0x3cc17b05	0.02361823
217	0xbc95e9cb	-0.018299958
218	0x3ccf4d87	0.025305523
219	0x3b019e93	0.0019778355
220	0xbae33d42	-0.0017336982
221	0x3d2252c4	0.039629713
222	0x3c4c81f1	0.012482152
223	0x3cf87c13	0.0303326
224	0x3c1b7486	0.009488231
225	0x3bbc7703	0.005751492
226	0xbc83c175	-0.016083458
227	0x3c89a760	0.016803443
228	0x3b690716	0.0035557202
229	0xbd157f01	-0.036498073
230	0xbc176222	-0.009239705
231	0xbcb37787	-0.021907581
232	0xbcbe5d5a	-0.023237873
233	0x3c9d262b	0.019183239
234	0xbd6a005f	-0.05712926
235	0x3c88d59f	0.016703425
236	0xbcf48669	-0.029849248
237	0x3b3f678e	0.002920601
238	0x3d0baaae	0.03409832
239	0x3c0b20c3	0.008491698
240	0x3b24221f	0.0025044752
241	0x3cce7305	0.02520133
242	0xbc4538e9	-0.012037494
243	0x3ca802be	0.02050912
244	0xbcb00a9a	-0.02148943
245	0x3aa0747f	0.001224175
246	0x3ccb631b	0.02482753
247	0xbc14e6f7	-0.009088269
248	0xba66067b	-0.00087747694
249	0xbaf5fcdc	-0.0018767375
250	0xbc93a7cf	-0.018024353
251	0x3bf189d7	0.007371168
252	0x3d0e9380	0.034808636
253	0xbc21b825	-0.009870564
254	0x3abeaf16	0.0014548029
255	0xbcc65924	-0.024212427

action_model._discrete_distribution.branches.0.weight f4 [1, 128]
0	0x3cc5f49f	0.024164496
1	0xbb8cad9d	-0.0042931573
2	0xbb20664d	-0.0024475039
3	0xb9f5cd90	-0.00046883198
4	0xbc68bd7f	-0.014205336
5	0xbc9f1f67	-0.019424153
6	0x3c0ee20c	0.008720886
7	0xbb7c2ab8	-0.003847761
8	0xbae19347	-0.001721003
9	0x3c924af1	0.017858
10	0x3be53baa	0.006995638
11	0x3a9582a9	0.0011406738
12	0xbb9b6990	-0.0047428086
13	0xbc7d7baa	-0.015471378
14	0xbc39775e	-0.011319963
15	0x3bc81f0e	0.0061072176
16	0x3b58c2cd	0.0033075095
17	0x3996b136	0.00028742262
18	0x3bebd118	0.007196557
19	0xbbec2a30	-0.0072071776
20	0xbc1232d6	-0.008923253
21	0xbca1f267	-0.019768907
22	0x3cafc32b	0.021455368
23	0xbb95a2a5	-0.004566508
24	0xbb14c3e3	-0.0022699765
25	0x3b7a6b47	0.0038210915
26	0xbc28502d	-0.010273022
27	0x3c9393fc	0.0180149
28	0xb9c5e443	-0.00037744836
29	0x3b3a491a	0.002842492
30	0x380b021a	3.314214e-05
31	0xbbaf68a5	-0.005353051
32	0xbaf9389f	-0.0019014067
33	0xbbfdc015	-0.007743845
34	0xbafb9a30	-0.0019195732
35	0xbb66ce88	-0.0035218317
36	0x3b25a315	0.0025274206
37	0xbc3318cb	-0.010931204
38	0xba9e0166	-0.001205486
39	0xbc3d3d35	-0.011550237
40	0x3c923ee2	0.01785225
41	0x3bf411ad	0.007448396
42	0xbc5e06a5	-0.013551389
43	0xbab1815f	-0.0013542584
44	0x3c0e473e	0.008683978
45	0xbae96a1a	-0.001780811
46	0xb9192caf	-0.00014607863
47	0x3ba14801	0.0049219136
48	0x3c160070	0.009155378
49	0xba8cfaa3	-0.0010755848
50	0x3c6f81bd	0.014618334
51	0x3b8e2793	0.0043382137
52	0xbbd8ba63	-0.006614016
53	0x3c00ae23	0.007854017
54	0xbc8397ef	-0.016063659
55	0xbb42cb29	-0.0029723144
56	0x3abf70e2	0.0014605785
57	0x3ba07439	0.0048966673
58	0x3b5ab075	0.0033369337
59	0x3c07bd6f	0.008284911
60	0x3c675460	0.014119238
61	0xbcd55a8b	-0.02604415
62	0x3c3ef2b3	0.011654544
63	0xbb44859d	-0.0029986866
64	0x3b3194b9	0.0027096702
65	0xbc819f23	-0.015822953
66	0xbba145b2	-0.0049216384
67	0xbbaded7f	-0.0053078528
68	0x3b2a90e4	0.0026026303
69	0xbbd6d6e0	-0.006556377
70	0x3c30675b	0.010766829
71	0x3c4b861f	0.012422114
72	0x3bfdd960	0.0077468604
73	0x3b909927	0.0044127884
74	0x3c4fb0d2	0.012676435
75	0x3c526830	0.012842223
76	0xbb71f9fd	-0.0036922686
77	0xbc0055ff	-0.007833003
78	0xbcb4f953	-0.022091543
79	0x38bfbfff	9.143352e-05
80	0x3c2af7a6	0.010435021
81	0xbc3da77b	-0.011575575
82	0x3bcb5eba	0.0062063606
83	0xbcbf07f9	-0.023319231
84	0xbb9417c2	-0.0045194337
85	0xbb202962	-0.0024438729
86	0xb9cce703	-0.0003908203
87	0xbbe7ed4a	-0.0070778476
88	0xbb4aab70	-0.0030924939
89	0x3b3f483e	0.0029187347
90	0xbc815c5a	-0.015791107
91	0x3c5cd602	0.013478758
92	0x3ae46893	0.0017426185
93	0xba148227	-0.0005665146
94	0xbc1fa826	-0.00974468
95	0xbba598e2	-0.0050536254
96	0x3b213751	0.0024599622
97	0xbb9d387d	-0.0047979937
98	0xbb91f930	-0.0044547543
99	0xbbbb7f47	-0.0057219598
100	0xbcaf0a80	-0.021367311
101	0xbb8ec8f2	-0.0043574506
102	0xbbdaef2d	-0.006681344
103	0x3c009e65	0.007850264
104	0xbb6ee088	-0.003644975
105	0xbc0969f3	-0.008387077
106	0x3ba0cb29	0.004907031
107	0x3a0f31df	0.00054624485
108	0x3b44f4a2	0.003005304
109	0xbb1e53fe	-0.002415895
110	0x3c718160	0.014740318
111	0xba955747	-0.0011393809
112	0x3bb12640	0.005406171
113	0xbb9aa204	-0.004719021
114	0xbc49087b	-0.012270088
115	0x3a9df658	0.0012051566
116	0xbb35c14f	-0.002773363
117	0x3c978a82	0.018498663
118	0x39992537	0.0002921016
119	0x3c590a92	0.013247149
120	0xbb95ff21	-0.004577533
121	0xba8ac71b	-0.0010587903
122	0xbacc9625	-0.0015608711
123	0x3c2a9b13	0.010412949
124	0xbbd92173	-0.006626302
125	0x3c0814b1	0.0083057145
126	0x3bd99317	0.006639849
127	0xbbed453d	-0.00724092

network_body._body_endoder.seq_layers.0.bias f4 [128]
0	0xbb871033	-0.004121804
1	0x3a558c7a	0.0008146238
2	0x3b4fc8a0	0.0031705275
3	0xbb014671	-0.0019725824
4	0xbba0a568	-0.0049025305
5	0x39f4bdf6	0.0004668084
6	0x3bb508d8	0.005524736
7	0xb8ff7553	-0.00012181201
8	0x39a5b425	0.0003160547
9	0x3b4264f1	0.0029662217
10	0x3b6d3466	0.0036194562
11	0xbb0d0382	-0.0021516983
12	0x3a8a047c	0.0010529901
13	0xba1751df	-0.00057723926
14	0xb9c14daa	-0.00036869693
15	0x3b17bfa2	0.0023154994
16	0xb9d158d5	-0.0003992977
17	0xbb7d2b59	-0.0038630574
18	0xba49a9a1	-0.0007692818
19	0xb960e89d	-0.0002144896
20	0x3b4ea2e0	0.0031530187
21	0x39479dd8	0.0001903692
22	0x3b67e324	0.003538319
23	0xb9fda30e	-0.00048377406
24	0xb788d287	-1.6310498e-05
25	0xb99a3961	-0.0002941592
26	0x3b9fe661	0.004879758
27	0x39474d20	0.0001900685
28	0x3911bf36	0.00013899509
29	0xba3f7a28	-0.00073042745
30	0x3b5975dc	0.0033181822
31	0xb9542960	-0.00020233309
32	0xbb36b09c	-0.0027876263
33	0xb86e1112	-5.675952e-05
34	0xbbbf3fce	-0.0058364635
35	0xba1da792	-0.00060140446
36	0xba406b40	-0.00073402
37	0xba0e9dad	-0.00054403656
38	0xb9b95360	-0.0003534807
39	0xbae94f68	-0.0017800154
40	0xbaa72ead	-0.0012754999
41	0x3b3aa9f3	0.0028482645
42	0xb9241041	-0.00015646314
43	0x389a5122	7.3584044e-05
44	0x39e6f56c	0.00044051872
45	0x3bd96766	0.0066346405
46	0xbbad7260	-0.0052931756
47	0x3b76398c	0.0037570922
48	0x3928e644	0.00016107509
49	0xb9281dac	-0.00016032782
50	0x3b8b6b38	0.004254725
51	0xbbce32da	-0.006292683
52	0xbbda67e0	-0.006665215
53	0xbacff8d2	-0.0015867001
54	0xbabd864b	-0.0014459578
55	0xbbdf3a49	-0.006812368
56	0xba38b042	-0.00070453074
57	0xb9fbc75b	-0.00048022982
58	0xbbe21263	-0.0068991645
59	0xba7e04b2	-0.0009690031
60	0xbb28c996	-0.002575492
61	0x3acaf2ef	0.0015483777
62	0xba016f53	-0.0004937548
63	0xbb7c6278	-0.003851084
64	0xb9abf1b2	-0.0003279574
65	0x3a08255b	0.00051935547
66	0x3ac6e879	0.0015175483
67	0x3bd64835	0.0065393695
68	0x3b74e557	0.0037368143
69	0xba07488a	-0.00051606505
70	0x3afa6404	0.0019103293
71	0xba77e153	-0.0009455878
72	0x39cde5e2	0.00039271923
73	0x3ada50ef	0.00166562
74	0xb9855aea	-0.00025435473
75	0xbbf26c04	-0.0073981304
76	0xbb9db598	-0.0048129074
77	0x3bcf3934	0.006323958
78	0x3a360fbd	0.0006945094
79	0x3bada596	0.0052992804
80	0xb99ab39a	-0.00029506983
81	0xba9a73c7	-0.0011783772
82	0xba395e72	-0.00070712634
83	0xb9b48a4d	-0.00034435318
84	0xbb099c14	-0.002099757
85	0xbb966bc9	-0.0045904857
86	0xba00f152	-0.0004918772
87	0xbbe3f207	-0.006956342
88	0x3b2f2ac3	0.0026728369
89	0x39086f41	0.00013011416
90	0x3aeb43a0	0.0017949231
91	0xba9743f0	-0.0011540633
92	0x39ca7607	0.0003861638
93	0xba5f0fce	-0.000850913
94	0xbb07ca0b	-0.0020719792
95	0x391555f2	0.00014241764
96	0xba118958	-0.0005551777
97	0xb910ba4a	-0.00013802308
98	0x3b621521	0.0034497457
99	0xb9dbfd4e	-0.00041959662
100	0x3acb1c8a	0.0015496176
101	0x3a91ee84	0.0011133705
102	0x3b03c0df	0.0020103974
103	0xb9fa0459	-0.00047686955
104	0xbaf14e2d	-0.0018410139
105	0xba69ccdd	-0.00089187716
106	0xbae5abd4	-0.0017522522
107	0x38442e0d	4.677293e-05
108	0xb9ebe8ac	-0.00044996047
109	0xba58a01c	-0.0008263604
110	0xbba27a28	-0.00495841
111	0xba0078b2	-0.00049007975
112	0xb910e24c	-0.00013817212
113	0xba84490e	-0.0010092573
114	0x3b33ba49	0.0027424267
115	0x3bae8f0b	0.0053271106
116	0xbad5bdd5	-0.0016307185
117	0x3bb8e2fa	0.005642292
118	0xba1b1cbe	-0.00059170637
119	0x389f5279	7.5970725e-05
120	0xb704d0a2	-7.916389e-06
121	0xbab87e87	-0.0014075794
122	0x3979945d	0.0002380176
123	0x3b4c7d07	0.0031202452
124	0xbbf77849	-0.007552181
125	0x3b2a4151	0.0025978873
126	0xb9a2bd4b	-0.00031040082
127	0x3a4d35f4	0.0007828169

network_body._body_endoder.seq_layers.0.weight f4 [128, 8]
0	0xbec2cdfa	-0.38047773
1	0x3e25fb36	0.1620911
2	0x3e5ec6f7	0.21755587
3	0x3e979590	0.29606295
4	0xbf1a400e	-0.6025399
5	0xbe9353f6	-0.28774995
6	0xbdddf67b	-0.10838028
7	0xbed573b8	-0.4168985
8	0x3dc4b055	0.09603945
9	0x3e46ba94	0.19407111
10	0x3f5d2b28	0.86393976
11	0xbe0264b5	-0.12733729
12	0xbefa5bad	-0.48898068
13	0xbece673e	-0.40313143
14	0xbef30931	-0.4746795
15	0x3e0be748	0.13662446
16	0x3e171924	0.14755684
17	0xbedcb970	-0.43110228
18	0xbe82de17	-0.25560066
19	0xbd8354bb	-0.064126454
20	0xbe7c3945	-0.24631222
21	0xbd81a610	-0.06330502
22	0x3ea280ea	0.3173898
23	0xbd85d7d3	-0.06535306
24	0x3df452db	0.11929866
25	0xbe2380ea	-0.15967146
26	0x3f0f5c07	0.559998
27	0xbf7d3297	-0.9890532
28	0xbeda202d	-0.42602673
29	0xbdc5ca45	-0.096577205
30	0x3f37b3d3	0.71758765
31	0x3ef4d904	0.4782182
32	0x3efc1b9e	0.4923982
33	0xbe7fdddc	-0.24986976
34	0xbe4f6589	-0.20253576
35	0xbca3bb84	-0.019986875
36	0x3f6c30c5	0.92261916
37	0x3e5d9b85	0.21641357
38	0x3e8949c2	0.26814085
39	0x3f320440	0.69537735
40	0x3e15a15b	0.14612333
41	0xbe5ab3fb	-0.2135772
42	0x3deb914d	0.11502323
43	0x3e145843	0.14486794
44	0xbda59415	-0.08084885
45	0x3e902281	0.28151324
46	0xbdde6941	-0.10859919
47	0x3d97af07	0.07406431
48	0x3ded4631	0.115856536
49	0xbf5b9f2c	-0.8578975
50	0x3e8ee7dc	0.2791127
51	0xbf87ebbe	-1.0618818
52	0xbed40c9f	-0.4141588
53	0xbdeca0d3	-0.11554112
54	0x3edff191	0.43738988
55	0xbe0a7d08	-0.13524258
56	0xbe5fc72c	-0.21853322
57	0xbf1642fa	-0.5869595
58	0x3e88887f	0.26666638
59	0x3e709527	0.23494397
60	0x3f40902d	0.75219995
61	0xbc9af2f0	-0.01891467
62	0x3d6c2916	0.05765637
63	0xbe2cfc54	-0.1689313
64	0x3c55a7f1	0.013040529
65	0x3d689d0f	0.056790408
66	0x3e787ddb	0.2426676
67	0xbecd156b	-0.40055403
68	0xbd366fab	-0.04454009
69	0xbe8e14c4	-0.27750218
70	0x3e9efe62	0.31053454
71	0xbc87ec05	-0.016592035
72	0xbf6b1f79	-0.918449
73	0x3be856d2	0.007090428
74	0x3e891ff1	0.26782182
75	0xbe97f952	-0.29682404
76	0xbd0c8eb0	-0.034315765
77	0x3e98c53e	0.29837984
78	0x3f3480cd	0.70509034
79	0xbead410f	-0.33838698
80	0xbe1c7f3e	-0.15282914
81	0x3ec86641	0.39140514
82	0x3e9f0f76	0.31066483
83	0xbda00f3f	-0.07815408
84	0xbf1774fe	-0.5916289
85	0x3cf6f54b	0.030146262
86	0x3eee72f7	0.46572086
87	0x3ef0c942	0.47028548
88	0x3e2b9b48	0.16758454
89	0xbe0c4e3f	-0.13701724
90	0x3e058200	0.13037872
91	0xbe337ac8	-0.17527306
92	0x3eb3a5af	0.35087344
93	0x3f44e35f	0.7690944
94	0x3da33c0d	0.07970438
95	0x3ec39bff	0.38204953
96	0x3e711fd9	0.23547305
97	0xbce95c51	-0.028486403
98	0xbaf4b8b8	-0.0018670773
99	0x3f125df5	0.5717462
100	0xbf036177	-0.51320595
101	0xbe3c0391	-0.18360735
102	0x3eddccfa	0.43320447
103	0x3e891385	0.26772705
104	0xbebbdec5	-0.36693397
105	0x3eeed4f2	0.4664684
106	0x3ce68aab	0.028142294
107	0x3e2f9b24	0.17149025
108	0x3e89f5f5	0.26945463
109	0x3e4f9d81	0.20274927
110	0xbe28bbcf	-0.16477893
111	0x3cdd6856	0.02702729
112	0xbf5a946a	-0.8538271
113	0x3e573cf7	0.2101935
114	0xbda7696b	-0.08174404
115	0x3d9a2bef	0.07527911
116	0xbe1071ba	-0.14105883
117	0xbd84ba7c	-0.064808816
118	0x3b28e922	0.0025773724
119	0x3dac9a47	0.084278636
120	0x3e5f3eb0	0.21801257
121	0xbed18b1e	-0.4092645
122	0xbe8753eb	-0.26431212
123	0xbf17df8c	-0.5932548
124	0xbd8d3bb3	-0.06896152
125	0xbe7238b1	-0.23654439
126	0xbf00dd0e	-0.503373
127	0xbf1ef0d4	-0.62086225
128	0xbeb787bf	-0.35845754
129	0x3e163d8c	0.14671916
130	0xbd8a13e0	-0.06742072
131	0x3de7561f	0.11295723
132	0xbd07007f	-0.032959457
133	0x3dad53ac	0.08463225
134	0xbea2576c	-0.31707323
135	0x3ed7f0d3	0.42175922
136	0x3e03c798	0.12869108
137	0x3df49750	0.11942923
138	0x3b83a6f2	0.004017704
139	0x3f15cae6	0.58512723
140	0xbefd97d3	-0.49529895
141	0xbdcade82	-0.09905721
142	0xbd4f18c8	-0.050560743
143	0x3e5cbbae	0.21555969
144	0x3ee74470	0.451694
145	0x3edf6336	0.4363038
146	0x3e02ea23	0.12784629
147	0x3f1cb522	0.61213887
148	0xbe1a04e7	-0.15040933
149	0x3e7f3339	0.24921884
150	0xbdde618f	-0.108584516
151	0x3e04b4d4	0.12959605
152	0x3f1fe86e	0.62464035
153	0xbe5b4d72	-0.21416262
154	0xbe5baf19	-0.21453513
155	0x3e79008e	0.24316618
156	0x3e0d9c81	0.13829233
157	0xbdad4fc5	-0.084624805
158	0x3e8207d1	0.25396588
159	0x3dac31d3	0.08407941
160	0x3f5c2340	0.8599129
161	0x3e30848c	0.17238063
162	0xbec36b6b	-0.3816789
163	0x3e5fced9	0.2185625
164	0xbddb17e9	-0.1069792
165	0x3e42f1ef	0.19037603
166	0x3d0e5176	0.034745656
167	0x3de5fb58	0.11229581
168	0x3e3809ed	0.17972536
169	0x3e88c2b6	0.26711053
170	0xbe4fc2a8	-0.20289099
171	0xbe4e2047	-0.201295
172	0xbdc9dcb7	-0.09856551
173	0xbee8c9cf	-0.45466468
174	0x3ded0739	0.11573643
175	0x3ec49556	0.38395184
176	0xbe3bcdaf	-0.18340181
177	0xbefd38da	-0.49457437
178	0xbe9c8e45	-0.30577293
179	0xbcb00de9	-0.021491008
180	0xbc444ba4	-0.011980925
181	0x3e9dcef5	0.30821958
182	0xbe305197	-0.17218624
183	0x3ecfa625	0.40556446
184	0x3d6c61df	0.057710525
185	0x3ed081c6	0.4072401
186	0x3dd0e37c	0.10199639
187	0x3d2a3ecf	0.041563805
188	0x3e2235f5	0.15840895
189	0xbf39bb77	-0.72551674
190	0xbecd58a7	-0.401067
191	0xbdc0ff0c	-0.09423646
192	0xbf01e2ba	-0.5073658
193	0xbefc847e	-0.49319834
194	0x3e7532b9	0.2394513
195	0x3e8dd6bb	0.2770289
196	0xbe0f70a0	-0.14007807
197	0x3ef7570f	0.48308608
198	0x3e5da650	0.21645474
199	0xbf0176a9	-0.50571686
200	0xbdbb327c	-0.091404885
201	0x3e31d6c8	0.17367089
202	0xbe7ee922	-0.2489362
203	0x3de74404	0.1129227
204	0xbd9c0438	-0.07617992
205	0xbd25a74b	-0.040442746
206	0x3d559fd6	0.052154385
207	0xbdc8898f	-0.09791862
208	0x3e8fb21c	0.28065574
209	0xbe140cc3	-0.14457993
210	0x3e8e8909	0.27838925
211	0xbe4d4c98	-0.2004875
212	0xbdb98f66	-0.09060554
213	0xbca93661	-0.020655813
214	0xbd387fe3	-0.045043837
215	0x3f5999b2	0.85000145
216	0x3f27cb78	0.65544844
217	0xbe825319	-0.25454023
218	0xbe96d8fd	-0.29462424
219	0x3e1428a6	0.14468631
220	0x3ce825cd	0.028338337
221	0x3e9adf87	0.30248663
222	0x3d6c1db7	0.057645526
223	0x3d022237	0.03177091
224	0xbf0d77f0	-0.55261135
225	0xbecfeac2	-0.40608793
226	0x3d22a6f1	0.03970999
227	0x3e7f6300	0.24940109
228	0xbea347ea	-0.31890804
229	0xbed91b3e	-0.42403597
230	0x3b2d9c76	0.0026490963
231	0x3e95e7fe	0.29278558
232	0xbf1644c8	-0.586987
233	0xbdd9f279	-0.10641951
234	0xbe81e205	-0.25367752
235	0xbd54ebfb	-0.05198286
236	0x3d223386	0.039599918
237	0xbe510084	-0.20410353
238	0xbd662ac2	-0.05619312
239	0xbe1db9f0	-0.15402961
240	0x3de9c977	0.114153795
241	0x3e8ad8f9	0.27118662
242	0x3e3ccfb3	0.18438606
243	0xbece441c	-0.40286338
244	0xbf7403ca	-0.9531828
245	0xbe4eeaf0	-0.20206809
246	0x3e3d776b	0.18502586
247	0xbd9406f2	-0.07227887
248	0xbe6c4b8b	-0.23075692
249	0xbe1deef6	-0.15423188
250	0x3c1224ed	0.008919937
251	0x3d9cabe8	0.07649976
252	0xbda16a13	-0.0788156
253	0x3ea87930	0.3290496
254	0x3eda621f	0.42652985
255	0x3ef82ec6	0.48473185

network_body._body_endoder.seq_layers.2.bias f4 [128]
0	0xbbd69473	-0.0065484582
1	0x3b724d3e	0.003697231
2	0x37b5831d	2.1637936e-05
3	0xbb55e3e3	-0.0032637052
4	0x3b7ada48	0.0038277078
5	0xb9f00d88	-0.0004578645
6	0xbb906f5e	-0.0044078073
7	0xba8673f6	-0.0010257948
8	0xbb922949	-0.004460488
9	0xba3c75d2	-0.00071891875
10	0xba02b8eb	-0.00049866614
11	0xbb983e9a	-0.0046461346
12	0x39c50039	0.00037574934
13	0x3a3884f1	0.0007038853
14	0x3a31a72a	0.00067769235
15	0xbab685bb	-0.0013925353
16	0x39cf2387	0.00039508587
17	0xba93e2fe	-0.0011282859
18	0xbb9c0ddd	-0.004762395
19	0x3a1c7176	0.0005967835
20	0x3b8c619c	0.004284097
21	0xbb8e98cd	-0.0043517114
22	0x387fc3c6	6.0979066e-05
23	0xba8f844d	-0.0010949463
24	0x3a100aed	0.0005494792
25	0x393751b0	0.00017482671
26	0xb9b2ee42	-0.00034128322
27	0xba986e6d	-0.0011629589
28	0xbb36ffeb	-0.0027923535
29	0xba02199f	-0.0004962924
30	0x3b233cec	0.0024908138
31	0xb9d28f65	-0.00040161159
32	0xbb4e6c1a	-0.003149754
33	0xbac27860	-0.00148369
34	0xbbd21158	-0.006410759
35	0xb734a54d	-1.0767323e-05
36	0xba57651b	-0.0008216665
37	0xba869a31	-0.0010269341
38	0x3a609149	0.0008566571
39	0xba750f5e	-0.0009348298
40	0xba0c8baf	-0.00053613906
41	0xbac9c3ce	-0.0015393437
42	0xbb754a43	-0.0037428297
43	0x3bbf6976	0.0058414293
44	0xb9be22d2	-0.00036265567
45	0x393d5fe5	0.00018060168
46	0x3bb58208	0.0055391826
47	0xbbe2ef6d	-0.0069255144
48	0xbad45820	-0.001620058
49	0x3b744471	0.003727224
50	0xbbdec5c5	-0.0067984783
51	0xba68964e	-0.0008872495
52	0xb9f201a4	-0.0004615906
53	0xbb98947b	-0.004656372
54	0xbb5dc2b3	-0.0033837974
55	0xb9b677c7	-0.00034802986
56	0x390d2114	0.0001345913
57	0xbab58dd7	-0.0013851476
58	0x3b890730	0.004181765
59	0xba65c38a	-0.00087647943
60	0xba7fdd6c	-0.00097604725
61	0xb9fa3a3c	-0.00047727104
62	0x3bfb0f53	0.007661739
63	0x3a9e1c26	0.0012062832
64	0xb9e04c56	-0.00042781484
65	0x3b62177e	0.0034498866
66	0x3a8efaeb	0.001090852
67	0xba14e61d	-0.00056800415
68	0x3b5725bf	0.0032828895
69	0xbb125f0a	-0.002233448
70	0x3b823846	0.0039739935
71	0xb9300440	-0.00016786251
72	0xbb591a8a	-0.003312739
73	0xb9371d55	-0.00017463167
74	0xba3b5bbf	-0.0007147155
75	0xba601f08	-0.0008549546
76	0x3a30662a	0.0006729091
77	0xbb01f4c9	-0.0019829741
78	0xba0af46e	-0.0005300705
79	0xbb9fe978	-0.0048801266
80	0xb9dc3d89	-0.00042007517
81	0x3b377908	0.0027995724
82	0xba42593b	-0.0007413809
83	0x3a69ac86	0.00089139526
84	0x3c07d7dc	0.008291211
85	0x3b9a1e88	0.0047033466
86	0xba50eedd	-0.0007970164
87	0x3b36e118	0.0027905162
88	0xba3e7524	-0.000726538
89	0x3bd9fb7d	0.006652294
90	0xbb360684	-0.002777488
91	0x3a9568cb	0.0011399029
92	0x3936b7ff	0.00017425416
93	0xba8cd322	-0.0010744075
94	0x3a58eeac	0.0008275311
95	0xb9b46783	-0.00034409398
96	0x39fc9c4d	0.0004818164
97	0xb9e4d9fd	-0.00043649963
98	0x3a5ff589	0.00085433625
99	0xbb5742eb	-0.0032846283
100	0x3bba6a27	0.005688924
101	0x3a9238c9	0.0011155839
102	0xbba6535f	-0.0050758566
103	0xba1eefb1	-0.00060629385
104	0xba2d315c	-0.00066067814
105	0xbbf2fbff	-0.007415294
106	0x3b8d92d2	0.004320481
107	0xb794d0be	-1.7740178e-05
108	0x3b90cabd	0.0044186995
109	0xbadd09a5	-0.0016863836
110	0xb9ab182f	-0.0003263368
111	0x39d029fe	0.00039704138
112	0xb697ceb3	-4.5242136e-06
113	0x39fd29e3	0.00048287128
114	0x3a69cd81	0.0008918867
115	0xb9e01119	-0.00042737348
116	0x39ae797e	0.00033278385
117	0x3bb24ab8	0.005441036
118	0xbb24036a	-0.002502645
119	0x3a00f66e	0.00049195334
120	0x3a655843	0.0008748809
121	0xba606281	-0.00085596
122	0x39fceb6a	0.00048240583
123	0xba559ad6	-0.00081483775
124	0xbb99e55c	-0.004696531
125	0xbaac8b15	-0.0013164008
126	0xb9e5b809	-0.000438154
127	0x3b85981a	0.00407697

network_body._body_endoder.seq_layers.2.weight f4 [128, 128]
0	0xbdf38fc5	-0.11892656
1	0x3da354ab	0.079751335
2	0x3e03becb	0.1286575
3	0xbd766c1e	-0.060161702
4	0x3dce92a3	0.100865625
5	0xbe018886	-0.12649736
6	0x3c8b0e69	0.016974645
7	0xbb61ea78	-0.003447203
8	0x3d8d98f4	0.06913939
9	0xbcc50e72	-0.02405474
10	0xbdc7b421	-0.09751154
11	0x3e986522	0.29764658
12	0xbdbe0a45	-0.092793025
13	0x3d91d14d	0.07119999
14	0x3e0cd5c0	0.13753414
15	0xbdff5224	-0.12466839
16	0x3d9b1eb7	0.07574218
17	0x3e765af1	0.24058129
18	0xbd74385c	-0.05962406
19	0xbdae5512	-0.085123196
20	0x3da985d7	0.08277481
21	0x3d9d9a59	0.07695455
22	0xbdb9873a	-0.090589955
23	0x3d28c631	0.041204635
24	0xbd744f1e	-0.059645765
25	0x3b007831	0.001960289
26	0xbdbe9da6	-0.09307413
27	0xbd1d8d95	-0.0384651
28	0xbe354191	-0.17700793
29	0x3d63bbc1	0.055598978
30	0x3d8eb060	0.069672346
31	0x3e086458	0.13319528
32	0xbd14644f	-0.036228474
33	0xbabe3f60	-0.0014514737
34	0xbe0dabbf	-0.13835047
35	0xbc5ed14b	-0.013599704
36	0x3de09704	0.10966304
37	0xbcb87ae0	-0.022519529
38	0xbd2f2e79	-0.04276893
39	0xbda767f2	-0.08174123
40	0x3b9c608e	0.0047722524
41	0x3cdb1b95	0.02674655
42	0x3d0c2ab3	0.03422041
43	0x3da0571e	0.07829116
44	0x3e07de84	0.13268477
45	0xbe1f307d	-0.1554584
46	0xbbe5bf79	-0.0070113507
47	0x3d1d2c04	0.038372055
48	0x3c505b5c	0.012717094
49	0xbd7d53b9	-0.061847422
50	0x3e3d239e	0.18470618
51	0x3cfcfcb6	0.03088222
52	0x3d0578f6	0.03258606
53	0x3dbc2e6e	0.09188543
54	0x3d3ff08c	0.046860263
55	0x3d9b57c4	0.07585099
56	0xbe5df23b	-0.21674435
57	0x3ca7fefb	0.020507326
58	0x3da2b25e	0.07944177
59	0x3dd7446e	0.10511099
60	0xbd3081a1	-0.043092374
61	0xbd09cdaa	-0.033643402
62	0x3cbdec61	0.023184003
63	0x3d93c595	0.0721542
64	0x3dbc6c2f	0.09200322
65	0xbca8102f	-0.02051553
66	0xbdc4af5f	-0.09603762
67	0x3d3b4943	0.045724165
68	0x3da10bd9	0.07863588
69	0xbd96204a	-0.073303774
70	0x3e0ce9ee	0.13761112
71	0x3cad786f	0.021175591
72	0xbd8fd82b	-0.07023653
73	0xbdd2bc38	-0.10289806
74	0x3bde57fa	0.00678539
75	0x3d5e8657	0.054327335
76	0x3dffe0a0	0.12494016
77	0xbd6cae7c	-0.05778359
78	0x3d5db31e	0.054125898
79	0xbe29655a	-0.16542569
80	0x3d82b029	0.06381256
81	0xbad40358	-0.0016175313
82	0x3d56f403	0.0524788
83	0xbe266ba4	-0.16251999
84	0x3c46dc3a	0.012137467
85	0xbda74218	-0.08166903
86	0x3d7cafae	0.06169098
87	0x3db905a1	0.09034277
88	0xbe18cd87	-0.14922152
89	0xbd4a496c	-0.049386427
90	0xbd313148	-0.04325989
91	0x3d11ab36	0.03556367
92	0x3cde6a82	0.027150396
93	0xbd730993	-0.059335303
94	0x3c56a702	0.013101341
95	0x3c899860	0.01679629
96	0xbcaff0d1	-0.021477135
97	0x3c86580e	0.01639941
98	0xbc10a427	-0.0088281995
99	0x3dec87b5	0.115493216
100	0xbdf7ba27	-0.120960526
101	0xbcf5ff59	-0.030028986
102	0xbd902cf0	-0.07039821
103	0x3e1b31f2	0.15155771
104	0xb860f5cc	-5.3634678e-05
105	0x3d877181	0.06613446
106	0xbdc6c4cf	-0.09705507
107	0xbb8c0ba2	-0.0042738477
108	0x3dc61f49	0.09673936
109	0xbdb419fc	-0.087940186
110	0x3dcc217b	0.099673234
111	0x3d4afab0	0.04955548
112	0xbdbaabb6	-0.091147825
113	0x39fd2140	0.00048280694
114	0xbd26e5a9	-0.040746365
115	0xbd18079b	-0.03711663
116	0xbd8982f3	-0.0671443
117	0x3da72674	0.08161631
118	0xbd7e19c7	-0.062036302
119	0x3c31f4bb	0.010861571
120	0xbd2f0558	-0.042729706
121	0xbd0fdc45	-0.035122175
122	0x3d61848d	0.05505805
123	0xbd2c397f	-0.04204702
124	0x3d3dadde	0.04630839
125	0xbd76c9f3	-0.060251188
126	0xbd74abb1	-0.05973405
127	0xbd93f0a1	-0.07223631
128	0xbdfe1ea2	-0.124081865
129	0x3c8bdf41	0.01707423
130	0x3e06e761	0.13174202
131	0xbba701f7	-0.00509667
132	0xbbb6835d	-0.005569859
133	0x3cd8d540	0.026468873
134	0x3d47220b	0.04861645
135	0x3caf8e7b	0.021430245
136	0x3df4a6ef	0.119459026
137	0x3c1b66b2	0.009484934
138	0x3d29d8e4	0.04146661
139	0xbd36bfc3	-0.044616472
140	0x3da31acf	0.07964098
141	0xbe21528d	-0.15754147
142	0x3d169325	0.03676142
143	0xbd1a0ea3	-0.037611615
144	0x3d35ebf0	0.04441446
145	0xbdabb81a	-0.08384724
146	0x3c63c71f	0.013902455
147	0x3e34dc77	0.17662226
148	0xbe36efdc	-0.17864937
149	0x3d9ab339	0.07553715
150	0x3e02fcc8	0.12791741
151	0x3ad90733	0.0016557932
152	0xba038fce	-0.0005018682
153	0xbdb88d40	-0.09011316
154	0x3ae66861	0.0017578715
155	0x3db87c28	0.09008056
156	0xbda5778e	-0.08079444
157	0xbdc04768	-0.0938862
158	0x3da01060	0.07815623
159	0x3d0eccf2	0.03486342
160	0xbde8b5dc	-0.11362812
161	0x3dc39303	0.09549525
162	0x3d346852	0.0440448
163	0xbe2aed38	-0.16692054
164	0xbd67a95d	-0.056558
165	0xbd6d4a61	-0.05793226
166	0xbb344552	-0.0027507138
167	0x3c3f2681	0.011666895
168	0xbd7052d4	-0.05867274
169	0x3d3e8809	0.046516452
170	0x3d36e4d0	0.044651806
171	0x3d30cd4b	0.043164533
172	0xbceadab0	-0.028668731
173	0x3d12d2bd	0.035845507
174	0xbc9aa20f	-0.018876104
175	0x3df5609b	0.11981317
176	0x3d93bc26	0.07213621
177	0x3d4f409f	0.050598737
178	0xbd3972ba	-0.045275427
179	0x3be7983d	0.0070677088
180	0x3e80ac42	0.25131422
181	0xbe05b728	-0.1305815
182	0x3e1dba5e	0.15403125
183	0xbe1897df	-0.14901684
184	0xbceca963	-0.028889364
185	0x3c8c7835	0.017147163
186	0x3d75fd6a	0.060056128
187	0x3d2c9de9	0.042142782
188	0xbcaf395d	-0.021389658
189	0xbc66b1b5	-0.014080455
190	0xbc811465	-0.015756795
191	0xbdec9c59	-0.115532584
192	0xbcdd43be	-0.027009841
193	0x3e20398b	0.15646951
194	0xbc4e7fe6	-0.012603736
195	0x3d0ea901	0.034829143
196	0xba9447af	-0.0011312867
197	0xbd0be765	-0.034156222
198	0xbd72062e	-0.059087925
199	0x3d2cee11	0.042219225
200	0x3d62f547	0.055409696
201	0x3c0a4468	0.008439161
202	0xbdc06066	-0.093933865
203	0xbd7def83	-0.061995994
204	0x3d015ff5	0.031585652
205	0x3d299370	0.041400373
206	0xbc0a9a03	-0.008459571
207	0x3ddac91b	0.10682889
208	0x3dc78f50	0.097441316
209	0x3c750cd8	0.0149566755
210	0xbb8abbfa	-0.0042338343
211	0xbe13d12c	-0.14435261
212	0xbe3e61a3	-0.18591933
213	0xbd17c934	-0.037057117
214	0xbd4dc4d3	-0.050236534
215	0x3d593cd1	0.053036515
216	0x3ccb02fb	0.024781695
217	0xbd959997	-0.073046856
218	0xbdb3341d	-0.08750174
219	0x3d8cf004	0.06881717
220	0xbc1e3245	-0.00965554
221	0xbcb3c467	-0.021944238
222	0xbcebeaea	-0.02879854
223	0xbe2ac9cd	-0.16678543
224	0x3e0cfb72	0.13767794
225	0xbd9f8076	-0.07788174
226	0xbd944793	-0.07240214
227	0x3e00783a	0.12545863
228	0x3b1c33c1	0.0023834559
229	0xbba98aa7	-0.0051739994
230	0xbd994661	-0.07484127
231	0xbe10276d	-0.1407754
232	0x3dbfebb0	0.09371126
233	0x3df69154	0.12039438
234	0x3d472d4e	0.04862719
235	0x3ca664f3	0.020311808
236	0x3d040155	0.032227833
237	0xbd246016	-0.040130697
238	0xbe113313	-0.1417964
239	0x3e334345	0.1750613
240	0xbcc938fe	-0.024563309
241	0xbd24e78e	-0.04025989
242	0xbe217ced	-0.15770312
243	0xbdcfcd33	-0.101465605
244	0xbb9e5af1	-0.0048326184
245	0xbd80a1a9	-0.06280834
246	0xbd70255f	-0.05862939
247	0x3d0d17bd	0.034446467
248	0x3c65171b	0.01398256
249	0x3d11c927	0.035592224
250	0x3d078e15	0.033094484
251	0x3baa2ccc	0.0051933285
252	0x3e1dfda2	0.15428784
253	0x3bceb295	0.0063079097
254	0x3b26daf3	0.0025460094
255	0xbc336439	-0.010949188
